{
  "layers" : [
    {
      "axis_h" : 0,
      "axis_w" : 2,
      "bottom" : "input_tensor",
      "axis_k" : 1,
      "axis_n" : 3,
      "axis_seq" : 4,
      "weights" : {

      },
      "debug_info" : "transpose_220",
      "top" : "transpose_220",
      "type" : "transpose",
      "name" : "transpose_220"
    },
    {
      "bottom" : "transpose_220",
      "weights" : {

      },
      "mode" : 6,
      "debug_info" : "cast_150",
      "top" : "cast_150",
      "type" : "activation",
      "name" : "cast_150",
      "beta" : 0
    },
    {
      "bottom" : "cast_150",
      "alpha" : 0.0078431377187371254,
      "operation" : 1,
      "weights" : {

      },
      "fused_relu" : 0,
      "debug_info" : "StatefulPartitionedCall\/Preprocessor\/mul",
      "top" : "StatefulPartitionedCall\/Preprocessor\/mul",
      "type" : "elementwise",
      "name" : "StatefulPartitionedCall\/Preprocessor\/mul",
      "beta" : 0
    },
    {
      "top" : "StatefulPartitionedCall\/Preprocessor\/sub\/y",
      "w" : 1,
      "h" : 1,
      "name" : "StatefulPartitionedCall\/Preprocessor\/sub\/y",
      "nd_rank" : 1,
      "type" : "load_constant",
      "k" : 1,
      "bottom" : "",
      "debug_info" : "StatefulPartitionedCall\/Preprocessor\/sub\/y",
      "n" : 1,
      "weights" : {

      },
      "constant_blob" : 1
    },
    {
      "alpha" : -1,
      "bottom" : "StatefulPartitionedCall\/Preprocessor\/sub\/y",
      "weights" : {

      },
      "mode" : 6,
      "debug_info" : "_neg_y_StatefulPartitionedCall\/Preprocessor\/sub",
      "top" : "_neg_y_StatefulPartitionedCall\/Preprocessor\/sub",
      "type" : "activation",
      "name" : "_neg_y_StatefulPartitionedCall\/Preprocessor\/sub",
      "beta" : 0
    },
    {
      "bottom" : "StatefulPartitionedCall\/Preprocessor\/mul,_neg_y_StatefulPartitionedCall\/Preprocessor\/sub",
      "alpha" : 1,
      "operation" : 0,
      "weights" : {

      },
      "fused_relu" : 0,
      "debug_info" : "StatefulPartitionedCall\/Preprocessor\/sub",
      "top" : "StatefulPartitionedCall\/Preprocessor\/sub",
      "type" : "elementwise",
      "name" : "StatefulPartitionedCall\/Preprocessor\/sub",
      "beta" : 0
    },
    {
      "axis_h" : 2,
      "axis_w" : 1,
      "bottom" : "StatefulPartitionedCall\/Preprocessor\/sub",
      "axis_k" : 0,
      "axis_n" : 3,
      "axis_seq" : 4,
      "weights" : {

      },
      "debug_info" : "transpose_219",
      "top" : "transpose_219",
      "type" : "transpose",
      "name" : "transpose_219"
    },
    {
      "weights" : {

      },
      "target_size_w" : 300,
      "grid_sampling_mode" : 2,
      "crop_index_mode" : 0,
      "spatial_scale" : 1,
      "type" : "crop_and_resize",
      "mode" : 1,
      "resized_dims" : 0,
      "bottom" : "transpose_219",
      "debug_info" : "StatefulPartitionedCall\/Preprocessor\/ResizeImage\/resize\/ResizeBilinear_channel_first_resize_bilinear",
      "target_size_h" : 300,
      "name" : "StatefulPartitionedCall\/Preprocessor\/ResizeImage\/resize\/ResizeBilinear_channel_first_resize_bilinear",
      "top" : "StatefulPartitionedCall\/Preprocessor\/ResizeImage\/resize\/ResizeBilinear_channel_first_resize_bilinear"
    },
    {
      "pad_r" : 0,
      "fused_relu" : 1,
      "fused_tanh" : 0,
      "debug_info" : "StatefulPartitionedCall\/ssd_mobile_net_v2keras_feature_extractor\/functional_1\/bn_Conv1\/FusedBatchNormV3_nchw",
      "pad_fill_mode" : 0,
      "pad_b" : 0,
      "pad_l" : 0,
      "top" : "StatefulPartitionedCall\/ssd_mobile_net_v2keras_feature_extractor\/functional_1\/Conv1_relu\/Relu6__relu6_relu__",
      "blob_weights" : 5,
      "K" : 3,
      "blob_biases" : 3,
      "stride_x" : 2,
      "name" : "StatefulPartitionedCall\/ssd_mobile_net_v2keras_feature_extractor\/functional_1\/bn_Conv1\/FusedBatchNormV3_nchw",
      "has_batch_norm" : 0,
      "type" : "convolution",
      "n_groups" : 1,
      "pad_t" : 0,
      "stride_y" : 2,
      "has_biases" : 1,
      "C" : 32,
      "bottom" : "StatefulPartitionedCall\/Preprocessor\/ResizeImage\/resize\/ResizeBilinear_channel_first_resize_bilinear",
      "weights" : {

      },
      "Nx" : 3,
      "pad_mode" : 1,
      "pad_value" : 0,
      "Ny" : 3,
      "n_parallel" : 1
    },
    {
      "alpha" : -1,
      "bottom" : "StatefulPartitionedCall\/ssd_mobile_net_v2keras_feature_extractor\/functional_1\/Conv1_relu\/Relu6__relu6_relu__",
      "weights" : {

      },
      "mode" : 6,
      "debug_info" : "StatefulPartitionedCall\/ssd_mobile_net_v2keras_feature_extractor\/functional_1\/Conv1_relu\/Relu6__relu6_neg__",
      "top" : "StatefulPartitionedCall\/ssd_mobile_net_v2keras_feature_extractor\/functional_1\/Conv1_relu\/Relu6__relu6_neg__",
      "type" : "activation",
      "name" : "StatefulPartitionedCall\/ssd_mobile_net_v2keras_feature_extractor\/functional_1\/Conv1_relu\/Relu6__relu6_neg__",
      "beta" : 0
    },
    {
      "bottom" : "StatefulPartitionedCall\/ssd_mobile_net_v2keras_feature_extractor\/functional_1\/Conv1_relu\/Relu6__relu6_neg__",
      "alpha" : -6,
      "operation" : 25,
      "weights" : {

      },
      "fused_relu" : 0,
      "debug_info" : "StatefulPartitionedCall\/ssd_mobile_net_v2keras_feature_extractor\/functional_1\/Conv1_relu\/Relu6__relu6_threshold6__",
      "top" : "StatefulPartitionedCall\/ssd_mobile_net_v2keras_feature_extractor\/functional_1\/Conv1_relu\/Relu6__relu6_threshold6__",
      "type" : "elementwise",
      "name" : "StatefulPartitionedCall\/ssd_mobile_net_v2keras_feature_extractor\/functional_1\/Conv1_relu\/Relu6__relu6_threshold6__",
      "beta" : 0
    },
    {
      "alpha" : -1,
      "bottom" : "StatefulPartitionedCall\/ssd_mobile_net_v2keras_feature_extractor\/functional_1\/Conv1_relu\/Relu6__relu6_threshold6__",
      "weights" : {

      },
      "mode" : 6,
      "debug_info" : "StatefulPartitionedCall\/ssd_mobile_net_v2keras_feature_extractor\/functional_1\/Conv1_relu\/Relu6",
      "top" : "StatefulPartitionedCall\/ssd_mobile_net_v2keras_feature_extractor\/functional_1\/Conv1_relu\/Relu6",
      "type" : "activation",
      "name" : "StatefulPartitionedCall\/ssd_mobile_net_v2keras_feature_extractor\/functional_1\/Conv1_relu\/Relu6",
      "beta" : 0
    },
    {
      "pad_r" : 0,
      "fused_relu" : 1,
      "fused_tanh" : 0,
      "debug_info" : "StatefulPartitionedCall\/ssd_mobile_net_v2keras_feature_extractor\/functional_1\/expanded_conv_depthwise_BN\/FusedBatchNormV3_nchw",
      "pad_fill_mode" : 0,
      "pad_b" : 0,
      "pad_l" : 0,
      "top" : "StatefulPartitionedCall\/ssd_mobile_net_v2keras_feature_extractor\/functional_1\/expanded_conv_depthwise_relu\/Relu6__relu6_relu__",
      "blob_weights" : 9,
      "K" : 32,
      "blob_biases" : 7,
      "name" : "StatefulPartitionedCall\/ssd_mobile_net_v2keras_feature_extractor\/functional_1\/expanded_conv_depthwise_BN\/FusedBatchNormV3_nchw",
      "has_batch_norm" : 0,
      "type" : "convolution",
      "n_groups" : 32,
      "pad_t" : 0,
      "has_biases" : 1,
      "C" : 32,
      "bottom" : "StatefulPartitionedCall\/ssd_mobile_net_v2keras_feature_extractor\/functional_1\/Conv1_relu\/Relu6",
      "weights" : {

      },
      "Nx" : 3,
      "pad_mode" : 1,
      "pad_value" : 0,
      "Ny" : 3,
      "n_parallel" : 1
    },
    {
      "alpha" : -1,
      "bottom" : "StatefulPartitionedCall\/ssd_mobile_net_v2keras_feature_extractor\/functional_1\/expanded_conv_depthwise_relu\/Relu6__relu6_relu__",
      "weights" : {

      },
      "mode" : 6,
      "debug_info" : "StatefulPartitionedCall\/ssd_mobile_net_v2keras_feature_extractor\/functional_1\/expanded_conv_depthwise_relu\/Relu6__relu6_neg__",
      "top" : "StatefulPartitionedCall\/ssd_mobile_net_v2keras_feature_extractor\/functional_1\/expanded_conv_depthwise_relu\/Relu6__relu6_neg__",
      "type" : "activation",
      "name" : "StatefulPartitionedCall\/ssd_mobile_net_v2keras_feature_extractor\/functional_1\/expanded_conv_depthwise_relu\/Relu6__relu6_neg__",
      "beta" : 0
    },
    {
      "bottom" : "StatefulPartitionedCall\/ssd_mobile_net_v2keras_feature_extractor\/functional_1\/expanded_conv_depthwise_relu\/Relu6__relu6_neg__",
      "alpha" : -6,
      "operation" : 25,
      "weights" : {

      },
      "fused_relu" : 0,
      "debug_info" : "StatefulPartitionedCall\/ssd_mobile_net_v2keras_feature_extractor\/functional_1\/expanded_conv_depthwise_relu\/Relu6__relu6_threshold6__",
      "top" : "StatefulPartitionedCall\/ssd_mobile_net_v2keras_feature_extractor\/functional_1\/expanded_conv_depthwise_relu\/Relu6__relu6_threshold6__",
      "type" : "elementwise",
      "name" : "StatefulPartitionedCall\/ssd_mobile_net_v2keras_feature_extractor\/functional_1\/expanded_conv_depthwise_relu\/Relu6__relu6_threshold6__",
      "beta" : 0
    },
    {
      "alpha" : -1,
      "bottom" : "StatefulPartitionedCall\/ssd_mobile_net_v2keras_feature_extractor\/functional_1\/expanded_conv_depthwise_relu\/Relu6__relu6_threshold6__",
      "weights" : {

      },
      "mode" : 6,
      "debug_info" : "StatefulPartitionedCall\/ssd_mobile_net_v2keras_feature_extractor\/functional_1\/expanded_conv_depthwise_relu\/Relu6",
      "top" : "StatefulPartitionedCall\/ssd_mobile_net_v2keras_feature_extractor\/functional_1\/expanded_conv_depthwise_relu\/Relu6",
      "type" : "activation",
      "name" : "StatefulPartitionedCall\/ssd_mobile_net_v2keras_feature_extractor\/functional_1\/expanded_conv_depthwise_relu\/Relu6",
      "beta" : 0
    },
    {
      "pad_r" : 0,
      "fused_relu" : 0,
      "fused_tanh" : 0,
      "debug_info" : "StatefulPartitionedCall\/ssd_mobile_net_v2keras_feature_extractor\/functional_1\/expanded_conv_project_BN\/FusedBatchNormV3_nchw",
      "pad_fill_mode" : 0,
      "pad_b" : 0,
      "pad_l" : 0,
      "top" : "StatefulPartitionedCall\/ssd_mobile_net_v2keras_feature_extractor\/functional_1\/expanded_conv_project_BN\/FusedBatchNormV3_nchw",
      "blob_weights" : 13,
      "K" : 32,
      "blob_biases" : 11,
      "name" : "StatefulPartitionedCall\/ssd_mobile_net_v2keras_feature_extractor\/functional_1\/expanded_conv_project_BN\/FusedBatchNormV3_nchw",
      "has_batch_norm" : 0,
      "type" : "convolution",
      "n_groups" : 1,
      "pad_t" : 0,
      "has_biases" : 1,
      "C" : 16,
      "bottom" : "StatefulPartitionedCall\/ssd_mobile_net_v2keras_feature_extractor\/functional_1\/expanded_conv_depthwise_relu\/Relu6",
      "weights" : {

      },
      "Nx" : 1,
      "pad_mode" : 1,
      "pad_value" : 0,
      "Ny" : 1,
      "n_parallel" : 1
    },
    {
      "pad_r" : 0,
      "fused_relu" : 1,
      "fused_tanh" : 0,
      "debug_info" : "StatefulPartitionedCall\/ssd_mobile_net_v2keras_feature_extractor\/functional_1\/block_1_expand_BN\/FusedBatchNormV3_nchw",
      "pad_fill_mode" : 0,
      "pad_b" : 0,
      "pad_l" : 0,
      "top" : "StatefulPartitionedCall\/ssd_mobile_net_v2keras_feature_extractor\/functional_1\/block_1_expand_relu\/Relu6__relu6_relu__",
      "blob_weights" : 17,
      "K" : 16,
      "blob_biases" : 15,
      "name" : "StatefulPartitionedCall\/ssd_mobile_net_v2keras_feature_extractor\/functional_1\/block_1_expand_BN\/FusedBatchNormV3_nchw",
      "has_batch_norm" : 0,
      "type" : "convolution",
      "n_groups" : 1,
      "pad_t" : 0,
      "has_biases" : 1,
      "C" : 96,
      "bottom" : "StatefulPartitionedCall\/ssd_mobile_net_v2keras_feature_extractor\/functional_1\/expanded_conv_project_BN\/FusedBatchNormV3_nchw",
      "weights" : {

      },
      "Nx" : 1,
      "pad_mode" : 1,
      "pad_value" : 0,
      "Ny" : 1,
      "n_parallel" : 1
    },
    {
      "alpha" : -1,
      "bottom" : "StatefulPartitionedCall\/ssd_mobile_net_v2keras_feature_extractor\/functional_1\/block_1_expand_relu\/Relu6__relu6_relu__",
      "weights" : {

      },
      "mode" : 6,
      "debug_info" : "StatefulPartitionedCall\/ssd_mobile_net_v2keras_feature_extractor\/functional_1\/block_1_expand_relu\/Relu6__relu6_neg__",
      "top" : "StatefulPartitionedCall\/ssd_mobile_net_v2keras_feature_extractor\/functional_1\/block_1_expand_relu\/Relu6__relu6_neg__",
      "type" : "activation",
      "name" : "StatefulPartitionedCall\/ssd_mobile_net_v2keras_feature_extractor\/functional_1\/block_1_expand_relu\/Relu6__relu6_neg__",
      "beta" : 0
    },
    {
      "bottom" : "StatefulPartitionedCall\/ssd_mobile_net_v2keras_feature_extractor\/functional_1\/block_1_expand_relu\/Relu6__relu6_neg__",
      "alpha" : -6,
      "operation" : 25,
      "weights" : {

      },
      "fused_relu" : 0,
      "debug_info" : "StatefulPartitionedCall\/ssd_mobile_net_v2keras_feature_extractor\/functional_1\/block_1_expand_relu\/Relu6__relu6_threshold6__",
      "top" : "StatefulPartitionedCall\/ssd_mobile_net_v2keras_feature_extractor\/functional_1\/block_1_expand_relu\/Relu6__relu6_threshold6__",
      "type" : "elementwise",
      "name" : "StatefulPartitionedCall\/ssd_mobile_net_v2keras_feature_extractor\/functional_1\/block_1_expand_relu\/Relu6__relu6_threshold6__",
      "beta" : 0
    },
    {
      "alpha" : -1,
      "bottom" : "StatefulPartitionedCall\/ssd_mobile_net_v2keras_feature_extractor\/functional_1\/block_1_expand_relu\/Relu6__relu6_threshold6__",
      "weights" : {

      },
      "mode" : 6,
      "debug_info" : "StatefulPartitionedCall\/ssd_mobile_net_v2keras_feature_extractor\/functional_1\/block_1_expand_relu\/Relu6",
      "top" : "StatefulPartitionedCall\/ssd_mobile_net_v2keras_feature_extractor\/functional_1\/block_1_expand_relu\/Relu6",
      "type" : "activation",
      "name" : "StatefulPartitionedCall\/ssd_mobile_net_v2keras_feature_extractor\/functional_1\/block_1_expand_relu\/Relu6",
      "beta" : 0
    },
    {
      "pad_r" : 0,
      "fused_relu" : 1,
      "fused_tanh" : 0,
      "debug_info" : "StatefulPartitionedCall\/ssd_mobile_net_v2keras_feature_extractor\/functional_1\/block_1_depthwise_BN\/FusedBatchNormV3_nchw",
      "pad_fill_mode" : 0,
      "pad_b" : 0,
      "pad_l" : 0,
      "top" : "StatefulPartitionedCall\/ssd_mobile_net_v2keras_feature_extractor\/functional_1\/block_1_depthwise_relu\/Relu6__relu6_relu__",
      "blob_weights" : 21,
      "K" : 96,
      "blob_biases" : 19,
      "stride_x" : 2,
      "name" : "StatefulPartitionedCall\/ssd_mobile_net_v2keras_feature_extractor\/functional_1\/block_1_depthwise_BN\/FusedBatchNormV3_nchw",
      "has_batch_norm" : 0,
      "type" : "convolution",
      "n_groups" : 96,
      "pad_t" : 0,
      "stride_y" : 2,
      "has_biases" : 1,
      "C" : 96,
      "bottom" : "StatefulPartitionedCall\/ssd_mobile_net_v2keras_feature_extractor\/functional_1\/block_1_expand_relu\/Relu6",
      "weights" : {

      },
      "Nx" : 3,
      "pad_mode" : 1,
      "pad_value" : 0,
      "Ny" : 3,
      "n_parallel" : 1
    },
    {
      "alpha" : -1,
      "bottom" : "StatefulPartitionedCall\/ssd_mobile_net_v2keras_feature_extractor\/functional_1\/block_1_depthwise_relu\/Relu6__relu6_relu__",
      "weights" : {

      },
      "mode" : 6,
      "debug_info" : "StatefulPartitionedCall\/ssd_mobile_net_v2keras_feature_extractor\/functional_1\/block_1_depthwise_relu\/Relu6__relu6_neg__",
      "top" : "StatefulPartitionedCall\/ssd_mobile_net_v2keras_feature_extractor\/functional_1\/block_1_depthwise_relu\/Relu6__relu6_neg__",
      "type" : "activation",
      "name" : "StatefulPartitionedCall\/ssd_mobile_net_v2keras_feature_extractor\/functional_1\/block_1_depthwise_relu\/Relu6__relu6_neg__",
      "beta" : 0
    },
    {
      "bottom" : "StatefulPartitionedCall\/ssd_mobile_net_v2keras_feature_extractor\/functional_1\/block_1_depthwise_relu\/Relu6__relu6_neg__",
      "alpha" : -6,
      "operation" : 25,
      "weights" : {

      },
      "fused_relu" : 0,
      "debug_info" : "StatefulPartitionedCall\/ssd_mobile_net_v2keras_feature_extractor\/functional_1\/block_1_depthwise_relu\/Relu6__relu6_threshold6__",
      "top" : "StatefulPartitionedCall\/ssd_mobile_net_v2keras_feature_extractor\/functional_1\/block_1_depthwise_relu\/Relu6__relu6_threshold6__",
      "type" : "elementwise",
      "name" : "StatefulPartitionedCall\/ssd_mobile_net_v2keras_feature_extractor\/functional_1\/block_1_depthwise_relu\/Relu6__relu6_threshold6__",
      "beta" : 0
    },
    {
      "alpha" : -1,
      "bottom" : "StatefulPartitionedCall\/ssd_mobile_net_v2keras_feature_extractor\/functional_1\/block_1_depthwise_relu\/Relu6__relu6_threshold6__",
      "weights" : {

      },
      "mode" : 6,
      "debug_info" : "StatefulPartitionedCall\/ssd_mobile_net_v2keras_feature_extractor\/functional_1\/block_1_depthwise_relu\/Relu6",
      "top" : "StatefulPartitionedCall\/ssd_mobile_net_v2keras_feature_extractor\/functional_1\/block_1_depthwise_relu\/Relu6",
      "type" : "activation",
      "name" : "StatefulPartitionedCall\/ssd_mobile_net_v2keras_feature_extractor\/functional_1\/block_1_depthwise_relu\/Relu6",
      "beta" : 0
    },
    {
      "pad_r" : 0,
      "fused_relu" : 0,
      "fused_tanh" : 0,
      "debug_info" : "StatefulPartitionedCall\/ssd_mobile_net_v2keras_feature_extractor\/functional_1\/block_1_project_BN\/FusedBatchNormV3_nchw",
      "pad_fill_mode" : 0,
      "pad_b" : 0,
      "pad_l" : 0,
      "top" : "StatefulPartitionedCall\/ssd_mobile_net_v2keras_feature_extractor\/functional_1\/block_1_project_BN\/FusedBatchNormV3_nchw",
      "blob_weights" : 25,
      "K" : 96,
      "blob_biases" : 23,
      "name" : "StatefulPartitionedCall\/ssd_mobile_net_v2keras_feature_extractor\/functional_1\/block_1_project_BN\/FusedBatchNormV3_nchw",
      "has_batch_norm" : 0,
      "type" : "convolution",
      "n_groups" : 1,
      "pad_t" : 0,
      "has_biases" : 1,
      "C" : 24,
      "bottom" : "StatefulPartitionedCall\/ssd_mobile_net_v2keras_feature_extractor\/functional_1\/block_1_depthwise_relu\/Relu6",
      "weights" : {

      },
      "Nx" : 1,
      "pad_mode" : 1,
      "pad_value" : 0,
      "Ny" : 1,
      "n_parallel" : 1
    },
    {
      "pad_r" : 0,
      "fused_relu" : 1,
      "fused_tanh" : 0,
      "debug_info" : "StatefulPartitionedCall\/ssd_mobile_net_v2keras_feature_extractor\/functional_1\/block_2_expand_BN\/FusedBatchNormV3_nchw",
      "pad_fill_mode" : 0,
      "pad_b" : 0,
      "pad_l" : 0,
      "top" : "StatefulPartitionedCall\/ssd_mobile_net_v2keras_feature_extractor\/functional_1\/block_2_expand_relu\/Relu6__relu6_relu__",
      "blob_weights" : 29,
      "K" : 24,
      "blob_biases" : 27,
      "name" : "StatefulPartitionedCall\/ssd_mobile_net_v2keras_feature_extractor\/functional_1\/block_2_expand_BN\/FusedBatchNormV3_nchw",
      "has_batch_norm" : 0,
      "type" : "convolution",
      "n_groups" : 1,
      "pad_t" : 0,
      "has_biases" : 1,
      "C" : 144,
      "bottom" : "StatefulPartitionedCall\/ssd_mobile_net_v2keras_feature_extractor\/functional_1\/block_1_project_BN\/FusedBatchNormV3_nchw",
      "weights" : {

      },
      "Nx" : 1,
      "pad_mode" : 1,
      "pad_value" : 0,
      "Ny" : 1,
      "n_parallel" : 1
    },
    {
      "alpha" : -1,
      "bottom" : "StatefulPartitionedCall\/ssd_mobile_net_v2keras_feature_extractor\/functional_1\/block_2_expand_relu\/Relu6__relu6_relu__",
      "weights" : {

      },
      "mode" : 6,
      "debug_info" : "StatefulPartitionedCall\/ssd_mobile_net_v2keras_feature_extractor\/functional_1\/block_2_expand_relu\/Relu6__relu6_neg__",
      "top" : "StatefulPartitionedCall\/ssd_mobile_net_v2keras_feature_extractor\/functional_1\/block_2_expand_relu\/Relu6__relu6_neg__",
      "type" : "activation",
      "name" : "StatefulPartitionedCall\/ssd_mobile_net_v2keras_feature_extractor\/functional_1\/block_2_expand_relu\/Relu6__relu6_neg__",
      "beta" : 0
    },
    {
      "bottom" : "StatefulPartitionedCall\/ssd_mobile_net_v2keras_feature_extractor\/functional_1\/block_2_expand_relu\/Relu6__relu6_neg__",
      "alpha" : -6,
      "operation" : 25,
      "weights" : {

      },
      "fused_relu" : 0,
      "debug_info" : "StatefulPartitionedCall\/ssd_mobile_net_v2keras_feature_extractor\/functional_1\/block_2_expand_relu\/Relu6__relu6_threshold6__",
      "top" : "StatefulPartitionedCall\/ssd_mobile_net_v2keras_feature_extractor\/functional_1\/block_2_expand_relu\/Relu6__relu6_threshold6__",
      "type" : "elementwise",
      "name" : "StatefulPartitionedCall\/ssd_mobile_net_v2keras_feature_extractor\/functional_1\/block_2_expand_relu\/Relu6__relu6_threshold6__",
      "beta" : 0
    },
    {
      "alpha" : -1,
      "bottom" : "StatefulPartitionedCall\/ssd_mobile_net_v2keras_feature_extractor\/functional_1\/block_2_expand_relu\/Relu6__relu6_threshold6__",
      "weights" : {

      },
      "mode" : 6,
      "debug_info" : "StatefulPartitionedCall\/ssd_mobile_net_v2keras_feature_extractor\/functional_1\/block_2_expand_relu\/Relu6",
      "top" : "StatefulPartitionedCall\/ssd_mobile_net_v2keras_feature_extractor\/functional_1\/block_2_expand_relu\/Relu6",
      "type" : "activation",
      "name" : "StatefulPartitionedCall\/ssd_mobile_net_v2keras_feature_extractor\/functional_1\/block_2_expand_relu\/Relu6",
      "beta" : 0
    },
    {
      "pad_r" : 0,
      "fused_relu" : 1,
      "fused_tanh" : 0,
      "debug_info" : "StatefulPartitionedCall\/ssd_mobile_net_v2keras_feature_extractor\/functional_1\/block_2_depthwise_BN\/FusedBatchNormV3_nchw",
      "pad_fill_mode" : 0,
      "pad_b" : 0,
      "pad_l" : 0,
      "top" : "StatefulPartitionedCall\/ssd_mobile_net_v2keras_feature_extractor\/functional_1\/block_2_depthwise_relu\/Relu6__relu6_relu__",
      "blob_weights" : 33,
      "K" : 144,
      "blob_biases" : 31,
      "name" : "StatefulPartitionedCall\/ssd_mobile_net_v2keras_feature_extractor\/functional_1\/block_2_depthwise_BN\/FusedBatchNormV3_nchw",
      "has_batch_norm" : 0,
      "type" : "convolution",
      "n_groups" : 144,
      "pad_t" : 0,
      "has_biases" : 1,
      "C" : 144,
      "bottom" : "StatefulPartitionedCall\/ssd_mobile_net_v2keras_feature_extractor\/functional_1\/block_2_expand_relu\/Relu6",
      "weights" : {

      },
      "Nx" : 3,
      "pad_mode" : 1,
      "pad_value" : 0,
      "Ny" : 3,
      "n_parallel" : 1
    },
    {
      "alpha" : -1,
      "bottom" : "StatefulPartitionedCall\/ssd_mobile_net_v2keras_feature_extractor\/functional_1\/block_2_depthwise_relu\/Relu6__relu6_relu__",
      "weights" : {

      },
      "mode" : 6,
      "debug_info" : "StatefulPartitionedCall\/ssd_mobile_net_v2keras_feature_extractor\/functional_1\/block_2_depthwise_relu\/Relu6__relu6_neg__",
      "top" : "StatefulPartitionedCall\/ssd_mobile_net_v2keras_feature_extractor\/functional_1\/block_2_depthwise_relu\/Relu6__relu6_neg__",
      "type" : "activation",
      "name" : "StatefulPartitionedCall\/ssd_mobile_net_v2keras_feature_extractor\/functional_1\/block_2_depthwise_relu\/Relu6__relu6_neg__",
      "beta" : 0
    },
    {
      "bottom" : "StatefulPartitionedCall\/ssd_mobile_net_v2keras_feature_extractor\/functional_1\/block_2_depthwise_relu\/Relu6__relu6_neg__",
      "alpha" : -6,
      "operation" : 25,
      "weights" : {

      },
      "fused_relu" : 0,
      "debug_info" : "StatefulPartitionedCall\/ssd_mobile_net_v2keras_feature_extractor\/functional_1\/block_2_depthwise_relu\/Relu6__relu6_threshold6__",
      "top" : "StatefulPartitionedCall\/ssd_mobile_net_v2keras_feature_extractor\/functional_1\/block_2_depthwise_relu\/Relu6__relu6_threshold6__",
      "type" : "elementwise",
      "name" : "StatefulPartitionedCall\/ssd_mobile_net_v2keras_feature_extractor\/functional_1\/block_2_depthwise_relu\/Relu6__relu6_threshold6__",
      "beta" : 0
    },
    {
      "alpha" : -1,
      "bottom" : "StatefulPartitionedCall\/ssd_mobile_net_v2keras_feature_extractor\/functional_1\/block_2_depthwise_relu\/Relu6__relu6_threshold6__",
      "weights" : {

      },
      "mode" : 6,
      "debug_info" : "StatefulPartitionedCall\/ssd_mobile_net_v2keras_feature_extractor\/functional_1\/block_2_depthwise_relu\/Relu6",
      "top" : "StatefulPartitionedCall\/ssd_mobile_net_v2keras_feature_extractor\/functional_1\/block_2_depthwise_relu\/Relu6",
      "type" : "activation",
      "name" : "StatefulPartitionedCall\/ssd_mobile_net_v2keras_feature_extractor\/functional_1\/block_2_depthwise_relu\/Relu6",
      "beta" : 0
    },
    {
      "pad_r" : 0,
      "fused_relu" : 0,
      "fused_tanh" : 0,
      "debug_info" : "StatefulPartitionedCall\/ssd_mobile_net_v2keras_feature_extractor\/functional_1\/block_2_project_BN\/FusedBatchNormV3_nchw",
      "pad_fill_mode" : 0,
      "pad_b" : 0,
      "pad_l" : 0,
      "top" : "StatefulPartitionedCall\/ssd_mobile_net_v2keras_feature_extractor\/functional_1\/block_2_project_BN\/FusedBatchNormV3_nchw",
      "blob_weights" : 37,
      "K" : 144,
      "blob_biases" : 35,
      "name" : "StatefulPartitionedCall\/ssd_mobile_net_v2keras_feature_extractor\/functional_1\/block_2_project_BN\/FusedBatchNormV3_nchw",
      "has_batch_norm" : 0,
      "type" : "convolution",
      "n_groups" : 1,
      "pad_t" : 0,
      "has_biases" : 1,
      "C" : 24,
      "bottom" : "StatefulPartitionedCall\/ssd_mobile_net_v2keras_feature_extractor\/functional_1\/block_2_depthwise_relu\/Relu6",
      "weights" : {

      },
      "Nx" : 1,
      "pad_mode" : 1,
      "pad_value" : 0,
      "Ny" : 1,
      "n_parallel" : 1
    },
    {
      "bottom" : "StatefulPartitionedCall\/ssd_mobile_net_v2keras_feature_extractor\/functional_1\/block_1_project_BN\/FusedBatchNormV3_nchw,StatefulPartitionedCall\/ssd_mobile_net_v2keras_feature_extractor\/functional_1\/block_2_project_BN\/FusedBatchNormV3_nchw",
      "alpha" : 1,
      "operation" : 0,
      "weights" : {

      },
      "fused_relu" : 0,
      "debug_info" : "StatefulPartitionedCall\/ssd_mobile_net_v2keras_feature_extractor\/functional_1\/block_2_add\/add",
      "top" : "StatefulPartitionedCall\/ssd_mobile_net_v2keras_feature_extractor\/functional_1\/block_2_add\/add",
      "type" : "elementwise",
      "name" : "StatefulPartitionedCall\/ssd_mobile_net_v2keras_feature_extractor\/functional_1\/block_2_add\/add",
      "beta" : 0
    },
    {
      "pad_r" : 0,
      "fused_relu" : 1,
      "fused_tanh" : 0,
      "debug_info" : "StatefulPartitionedCall\/ssd_mobile_net_v2keras_feature_extractor\/functional_1\/block_3_expand_BN\/FusedBatchNormV3_nchw",
      "pad_fill_mode" : 0,
      "pad_b" : 0,
      "pad_l" : 0,
      "top" : "StatefulPartitionedCall\/ssd_mobile_net_v2keras_feature_extractor\/functional_1\/block_3_expand_relu\/Relu6__relu6_relu__",
      "blob_weights" : 41,
      "K" : 24,
      "blob_biases" : 39,
      "name" : "StatefulPartitionedCall\/ssd_mobile_net_v2keras_feature_extractor\/functional_1\/block_3_expand_BN\/FusedBatchNormV3_nchw",
      "has_batch_norm" : 0,
      "type" : "convolution",
      "n_groups" : 1,
      "pad_t" : 0,
      "has_biases" : 1,
      "C" : 144,
      "bottom" : "StatefulPartitionedCall\/ssd_mobile_net_v2keras_feature_extractor\/functional_1\/block_2_add\/add",
      "weights" : {

      },
      "Nx" : 1,
      "pad_mode" : 1,
      "pad_value" : 0,
      "Ny" : 1,
      "n_parallel" : 1
    },
    {
      "alpha" : -1,
      "bottom" : "StatefulPartitionedCall\/ssd_mobile_net_v2keras_feature_extractor\/functional_1\/block_3_expand_relu\/Relu6__relu6_relu__",
      "weights" : {

      },
      "mode" : 6,
      "debug_info" : "StatefulPartitionedCall\/ssd_mobile_net_v2keras_feature_extractor\/functional_1\/block_3_expand_relu\/Relu6__relu6_neg__",
      "top" : "StatefulPartitionedCall\/ssd_mobile_net_v2keras_feature_extractor\/functional_1\/block_3_expand_relu\/Relu6__relu6_neg__",
      "type" : "activation",
      "name" : "StatefulPartitionedCall\/ssd_mobile_net_v2keras_feature_extractor\/functional_1\/block_3_expand_relu\/Relu6__relu6_neg__",
      "beta" : 0
    },
    {
      "bottom" : "StatefulPartitionedCall\/ssd_mobile_net_v2keras_feature_extractor\/functional_1\/block_3_expand_relu\/Relu6__relu6_neg__",
      "alpha" : -6,
      "operation" : 25,
      "weights" : {

      },
      "fused_relu" : 0,
      "debug_info" : "StatefulPartitionedCall\/ssd_mobile_net_v2keras_feature_extractor\/functional_1\/block_3_expand_relu\/Relu6__relu6_threshold6__",
      "top" : "StatefulPartitionedCall\/ssd_mobile_net_v2keras_feature_extractor\/functional_1\/block_3_expand_relu\/Relu6__relu6_threshold6__",
      "type" : "elementwise",
      "name" : "StatefulPartitionedCall\/ssd_mobile_net_v2keras_feature_extractor\/functional_1\/block_3_expand_relu\/Relu6__relu6_threshold6__",
      "beta" : 0
    },
    {
      "alpha" : -1,
      "bottom" : "StatefulPartitionedCall\/ssd_mobile_net_v2keras_feature_extractor\/functional_1\/block_3_expand_relu\/Relu6__relu6_threshold6__",
      "weights" : {

      },
      "mode" : 6,
      "debug_info" : "StatefulPartitionedCall\/ssd_mobile_net_v2keras_feature_extractor\/functional_1\/block_3_expand_relu\/Relu6",
      "top" : "StatefulPartitionedCall\/ssd_mobile_net_v2keras_feature_extractor\/functional_1\/block_3_expand_relu\/Relu6",
      "type" : "activation",
      "name" : "StatefulPartitionedCall\/ssd_mobile_net_v2keras_feature_extractor\/functional_1\/block_3_expand_relu\/Relu6",
      "beta" : 0
    },
    {
      "pad_r" : 0,
      "fused_relu" : 1,
      "fused_tanh" : 0,
      "debug_info" : "StatefulPartitionedCall\/ssd_mobile_net_v2keras_feature_extractor\/functional_1\/block_3_depthwise_BN\/FusedBatchNormV3_nchw",
      "pad_fill_mode" : 0,
      "pad_b" : 0,
      "pad_l" : 0,
      "top" : "StatefulPartitionedCall\/ssd_mobile_net_v2keras_feature_extractor\/functional_1\/block_3_depthwise_relu\/Relu6__relu6_relu__",
      "blob_weights" : 45,
      "K" : 144,
      "blob_biases" : 43,
      "stride_x" : 2,
      "name" : "StatefulPartitionedCall\/ssd_mobile_net_v2keras_feature_extractor\/functional_1\/block_3_depthwise_BN\/FusedBatchNormV3_nchw",
      "has_batch_norm" : 0,
      "type" : "convolution",
      "n_groups" : 144,
      "pad_t" : 0,
      "stride_y" : 2,
      "has_biases" : 1,
      "C" : 144,
      "bottom" : "StatefulPartitionedCall\/ssd_mobile_net_v2keras_feature_extractor\/functional_1\/block_3_expand_relu\/Relu6",
      "weights" : {

      },
      "Nx" : 3,
      "pad_mode" : 1,
      "pad_value" : 0,
      "Ny" : 3,
      "n_parallel" : 1
    },
    {
      "alpha" : -1,
      "bottom" : "StatefulPartitionedCall\/ssd_mobile_net_v2keras_feature_extractor\/functional_1\/block_3_depthwise_relu\/Relu6__relu6_relu__",
      "weights" : {

      },
      "mode" : 6,
      "debug_info" : "StatefulPartitionedCall\/ssd_mobile_net_v2keras_feature_extractor\/functional_1\/block_3_depthwise_relu\/Relu6__relu6_neg__",
      "top" : "StatefulPartitionedCall\/ssd_mobile_net_v2keras_feature_extractor\/functional_1\/block_3_depthwise_relu\/Relu6__relu6_neg__",
      "type" : "activation",
      "name" : "StatefulPartitionedCall\/ssd_mobile_net_v2keras_feature_extractor\/functional_1\/block_3_depthwise_relu\/Relu6__relu6_neg__",
      "beta" : 0
    },
    {
      "bottom" : "StatefulPartitionedCall\/ssd_mobile_net_v2keras_feature_extractor\/functional_1\/block_3_depthwise_relu\/Relu6__relu6_neg__",
      "alpha" : -6,
      "operation" : 25,
      "weights" : {

      },
      "fused_relu" : 0,
      "debug_info" : "StatefulPartitionedCall\/ssd_mobile_net_v2keras_feature_extractor\/functional_1\/block_3_depthwise_relu\/Relu6__relu6_threshold6__",
      "top" : "StatefulPartitionedCall\/ssd_mobile_net_v2keras_feature_extractor\/functional_1\/block_3_depthwise_relu\/Relu6__relu6_threshold6__",
      "type" : "elementwise",
      "name" : "StatefulPartitionedCall\/ssd_mobile_net_v2keras_feature_extractor\/functional_1\/block_3_depthwise_relu\/Relu6__relu6_threshold6__",
      "beta" : 0
    },
    {
      "alpha" : -1,
      "bottom" : "StatefulPartitionedCall\/ssd_mobile_net_v2keras_feature_extractor\/functional_1\/block_3_depthwise_relu\/Relu6__relu6_threshold6__",
      "weights" : {

      },
      "mode" : 6,
      "debug_info" : "StatefulPartitionedCall\/ssd_mobile_net_v2keras_feature_extractor\/functional_1\/block_3_depthwise_relu\/Relu6",
      "top" : "StatefulPartitionedCall\/ssd_mobile_net_v2keras_feature_extractor\/functional_1\/block_3_depthwise_relu\/Relu6",
      "type" : "activation",
      "name" : "StatefulPartitionedCall\/ssd_mobile_net_v2keras_feature_extractor\/functional_1\/block_3_depthwise_relu\/Relu6",
      "beta" : 0
    },
    {
      "pad_r" : 0,
      "fused_relu" : 0,
      "fused_tanh" : 0,
      "debug_info" : "StatefulPartitionedCall\/ssd_mobile_net_v2keras_feature_extractor\/functional_1\/block_3_project_BN\/FusedBatchNormV3_nchw",
      "pad_fill_mode" : 0,
      "pad_b" : 0,
      "pad_l" : 0,
      "top" : "StatefulPartitionedCall\/ssd_mobile_net_v2keras_feature_extractor\/functional_1\/block_3_project_BN\/FusedBatchNormV3_nchw",
      "blob_weights" : 49,
      "K" : 144,
      "blob_biases" : 47,
      "name" : "StatefulPartitionedCall\/ssd_mobile_net_v2keras_feature_extractor\/functional_1\/block_3_project_BN\/FusedBatchNormV3_nchw",
      "has_batch_norm" : 0,
      "type" : "convolution",
      "n_groups" : 1,
      "pad_t" : 0,
      "has_biases" : 1,
      "C" : 32,
      "bottom" : "StatefulPartitionedCall\/ssd_mobile_net_v2keras_feature_extractor\/functional_1\/block_3_depthwise_relu\/Relu6",
      "weights" : {

      },
      "Nx" : 1,
      "pad_mode" : 1,
      "pad_value" : 0,
      "Ny" : 1,
      "n_parallel" : 1
    },
    {
      "pad_r" : 0,
      "fused_relu" : 1,
      "fused_tanh" : 0,
      "debug_info" : "StatefulPartitionedCall\/ssd_mobile_net_v2keras_feature_extractor\/functional_1\/block_4_expand_BN\/FusedBatchNormV3_nchw",
      "pad_fill_mode" : 0,
      "pad_b" : 0,
      "pad_l" : 0,
      "top" : "StatefulPartitionedCall\/ssd_mobile_net_v2keras_feature_extractor\/functional_1\/block_4_expand_relu\/Relu6__relu6_relu__",
      "blob_weights" : 53,
      "K" : 32,
      "blob_biases" : 51,
      "name" : "StatefulPartitionedCall\/ssd_mobile_net_v2keras_feature_extractor\/functional_1\/block_4_expand_BN\/FusedBatchNormV3_nchw",
      "has_batch_norm" : 0,
      "type" : "convolution",
      "n_groups" : 1,
      "pad_t" : 0,
      "has_biases" : 1,
      "C" : 192,
      "bottom" : "StatefulPartitionedCall\/ssd_mobile_net_v2keras_feature_extractor\/functional_1\/block_3_project_BN\/FusedBatchNormV3_nchw",
      "weights" : {

      },
      "Nx" : 1,
      "pad_mode" : 1,
      "pad_value" : 0,
      "Ny" : 1,
      "n_parallel" : 1
    },
    {
      "alpha" : -1,
      "bottom" : "StatefulPartitionedCall\/ssd_mobile_net_v2keras_feature_extractor\/functional_1\/block_4_expand_relu\/Relu6__relu6_relu__",
      "weights" : {

      },
      "mode" : 6,
      "debug_info" : "StatefulPartitionedCall\/ssd_mobile_net_v2keras_feature_extractor\/functional_1\/block_4_expand_relu\/Relu6__relu6_neg__",
      "top" : "StatefulPartitionedCall\/ssd_mobile_net_v2keras_feature_extractor\/functional_1\/block_4_expand_relu\/Relu6__relu6_neg__",
      "type" : "activation",
      "name" : "StatefulPartitionedCall\/ssd_mobile_net_v2keras_feature_extractor\/functional_1\/block_4_expand_relu\/Relu6__relu6_neg__",
      "beta" : 0
    },
    {
      "bottom" : "StatefulPartitionedCall\/ssd_mobile_net_v2keras_feature_extractor\/functional_1\/block_4_expand_relu\/Relu6__relu6_neg__",
      "alpha" : -6,
      "operation" : 25,
      "weights" : {

      },
      "fused_relu" : 0,
      "debug_info" : "StatefulPartitionedCall\/ssd_mobile_net_v2keras_feature_extractor\/functional_1\/block_4_expand_relu\/Relu6__relu6_threshold6__",
      "top" : "StatefulPartitionedCall\/ssd_mobile_net_v2keras_feature_extractor\/functional_1\/block_4_expand_relu\/Relu6__relu6_threshold6__",
      "type" : "elementwise",
      "name" : "StatefulPartitionedCall\/ssd_mobile_net_v2keras_feature_extractor\/functional_1\/block_4_expand_relu\/Relu6__relu6_threshold6__",
      "beta" : 0
    },
    {
      "alpha" : -1,
      "bottom" : "StatefulPartitionedCall\/ssd_mobile_net_v2keras_feature_extractor\/functional_1\/block_4_expand_relu\/Relu6__relu6_threshold6__",
      "weights" : {

      },
      "mode" : 6,
      "debug_info" : "StatefulPartitionedCall\/ssd_mobile_net_v2keras_feature_extractor\/functional_1\/block_4_expand_relu\/Relu6",
      "top" : "StatefulPartitionedCall\/ssd_mobile_net_v2keras_feature_extractor\/functional_1\/block_4_expand_relu\/Relu6",
      "type" : "activation",
      "name" : "StatefulPartitionedCall\/ssd_mobile_net_v2keras_feature_extractor\/functional_1\/block_4_expand_relu\/Relu6",
      "beta" : 0
    },
    {
      "pad_r" : 0,
      "fused_relu" : 1,
      "fused_tanh" : 0,
      "debug_info" : "StatefulPartitionedCall\/ssd_mobile_net_v2keras_feature_extractor\/functional_1\/block_4_depthwise_BN\/FusedBatchNormV3_nchw",
      "pad_fill_mode" : 0,
      "pad_b" : 0,
      "pad_l" : 0,
      "top" : "StatefulPartitionedCall\/ssd_mobile_net_v2keras_feature_extractor\/functional_1\/block_4_depthwise_relu\/Relu6__relu6_relu__",
      "blob_weights" : 57,
      "K" : 192,
      "blob_biases" : 55,
      "name" : "StatefulPartitionedCall\/ssd_mobile_net_v2keras_feature_extractor\/functional_1\/block_4_depthwise_BN\/FusedBatchNormV3_nchw",
      "has_batch_norm" : 0,
      "type" : "convolution",
      "n_groups" : 192,
      "pad_t" : 0,
      "has_biases" : 1,
      "C" : 192,
      "bottom" : "StatefulPartitionedCall\/ssd_mobile_net_v2keras_feature_extractor\/functional_1\/block_4_expand_relu\/Relu6",
      "weights" : {

      },
      "Nx" : 3,
      "pad_mode" : 1,
      "pad_value" : 0,
      "Ny" : 3,
      "n_parallel" : 1
    },
    {
      "alpha" : -1,
      "bottom" : "StatefulPartitionedCall\/ssd_mobile_net_v2keras_feature_extractor\/functional_1\/block_4_depthwise_relu\/Relu6__relu6_relu__",
      "weights" : {

      },
      "mode" : 6,
      "debug_info" : "StatefulPartitionedCall\/ssd_mobile_net_v2keras_feature_extractor\/functional_1\/block_4_depthwise_relu\/Relu6__relu6_neg__",
      "top" : "StatefulPartitionedCall\/ssd_mobile_net_v2keras_feature_extractor\/functional_1\/block_4_depthwise_relu\/Relu6__relu6_neg__",
      "type" : "activation",
      "name" : "StatefulPartitionedCall\/ssd_mobile_net_v2keras_feature_extractor\/functional_1\/block_4_depthwise_relu\/Relu6__relu6_neg__",
      "beta" : 0
    },
    {
      "bottom" : "StatefulPartitionedCall\/ssd_mobile_net_v2keras_feature_extractor\/functional_1\/block_4_depthwise_relu\/Relu6__relu6_neg__",
      "alpha" : -6,
      "operation" : 25,
      "weights" : {

      },
      "fused_relu" : 0,
      "debug_info" : "StatefulPartitionedCall\/ssd_mobile_net_v2keras_feature_extractor\/functional_1\/block_4_depthwise_relu\/Relu6__relu6_threshold6__",
      "top" : "StatefulPartitionedCall\/ssd_mobile_net_v2keras_feature_extractor\/functional_1\/block_4_depthwise_relu\/Relu6__relu6_threshold6__",
      "type" : "elementwise",
      "name" : "StatefulPartitionedCall\/ssd_mobile_net_v2keras_feature_extractor\/functional_1\/block_4_depthwise_relu\/Relu6__relu6_threshold6__",
      "beta" : 0
    },
    {
      "alpha" : -1,
      "bottom" : "StatefulPartitionedCall\/ssd_mobile_net_v2keras_feature_extractor\/functional_1\/block_4_depthwise_relu\/Relu6__relu6_threshold6__",
      "weights" : {

      },
      "mode" : 6,
      "debug_info" : "StatefulPartitionedCall\/ssd_mobile_net_v2keras_feature_extractor\/functional_1\/block_4_depthwise_relu\/Relu6",
      "top" : "StatefulPartitionedCall\/ssd_mobile_net_v2keras_feature_extractor\/functional_1\/block_4_depthwise_relu\/Relu6",
      "type" : "activation",
      "name" : "StatefulPartitionedCall\/ssd_mobile_net_v2keras_feature_extractor\/functional_1\/block_4_depthwise_relu\/Relu6",
      "beta" : 0
    },
    {
      "pad_r" : 0,
      "fused_relu" : 0,
      "fused_tanh" : 0,
      "debug_info" : "StatefulPartitionedCall\/ssd_mobile_net_v2keras_feature_extractor\/functional_1\/block_4_project_BN\/FusedBatchNormV3_nchw",
      "pad_fill_mode" : 0,
      "pad_b" : 0,
      "pad_l" : 0,
      "top" : "StatefulPartitionedCall\/ssd_mobile_net_v2keras_feature_extractor\/functional_1\/block_4_project_BN\/FusedBatchNormV3_nchw",
      "blob_weights" : 61,
      "K" : 192,
      "blob_biases" : 59,
      "name" : "StatefulPartitionedCall\/ssd_mobile_net_v2keras_feature_extractor\/functional_1\/block_4_project_BN\/FusedBatchNormV3_nchw",
      "has_batch_norm" : 0,
      "type" : "convolution",
      "n_groups" : 1,
      "pad_t" : 0,
      "has_biases" : 1,
      "C" : 32,
      "bottom" : "StatefulPartitionedCall\/ssd_mobile_net_v2keras_feature_extractor\/functional_1\/block_4_depthwise_relu\/Relu6",
      "weights" : {

      },
      "Nx" : 1,
      "pad_mode" : 1,
      "pad_value" : 0,
      "Ny" : 1,
      "n_parallel" : 1
    },
    {
      "bottom" : "StatefulPartitionedCall\/ssd_mobile_net_v2keras_feature_extractor\/functional_1\/block_3_project_BN\/FusedBatchNormV3_nchw,StatefulPartitionedCall\/ssd_mobile_net_v2keras_feature_extractor\/functional_1\/block_4_project_BN\/FusedBatchNormV3_nchw",
      "alpha" : 1,
      "operation" : 0,
      "weights" : {

      },
      "fused_relu" : 0,
      "debug_info" : "StatefulPartitionedCall\/ssd_mobile_net_v2keras_feature_extractor\/functional_1\/block_4_add\/add",
      "top" : "StatefulPartitionedCall\/ssd_mobile_net_v2keras_feature_extractor\/functional_1\/block_4_add\/add",
      "type" : "elementwise",
      "name" : "StatefulPartitionedCall\/ssd_mobile_net_v2keras_feature_extractor\/functional_1\/block_4_add\/add",
      "beta" : 0
    },
    {
      "pad_r" : 0,
      "fused_relu" : 1,
      "fused_tanh" : 0,
      "debug_info" : "StatefulPartitionedCall\/ssd_mobile_net_v2keras_feature_extractor\/functional_1\/block_5_expand_BN\/FusedBatchNormV3_nchw",
      "pad_fill_mode" : 0,
      "pad_b" : 0,
      "pad_l" : 0,
      "top" : "StatefulPartitionedCall\/ssd_mobile_net_v2keras_feature_extractor\/functional_1\/block_5_expand_relu\/Relu6__relu6_relu__",
      "blob_weights" : 65,
      "K" : 32,
      "blob_biases" : 63,
      "name" : "StatefulPartitionedCall\/ssd_mobile_net_v2keras_feature_extractor\/functional_1\/block_5_expand_BN\/FusedBatchNormV3_nchw",
      "has_batch_norm" : 0,
      "type" : "convolution",
      "n_groups" : 1,
      "pad_t" : 0,
      "has_biases" : 1,
      "C" : 192,
      "bottom" : "StatefulPartitionedCall\/ssd_mobile_net_v2keras_feature_extractor\/functional_1\/block_4_add\/add",
      "weights" : {

      },
      "Nx" : 1,
      "pad_mode" : 1,
      "pad_value" : 0,
      "Ny" : 1,
      "n_parallel" : 1
    },
    {
      "alpha" : -1,
      "bottom" : "StatefulPartitionedCall\/ssd_mobile_net_v2keras_feature_extractor\/functional_1\/block_5_expand_relu\/Relu6__relu6_relu__",
      "weights" : {

      },
      "mode" : 6,
      "debug_info" : "StatefulPartitionedCall\/ssd_mobile_net_v2keras_feature_extractor\/functional_1\/block_5_expand_relu\/Relu6__relu6_neg__",
      "top" : "StatefulPartitionedCall\/ssd_mobile_net_v2keras_feature_extractor\/functional_1\/block_5_expand_relu\/Relu6__relu6_neg__",
      "type" : "activation",
      "name" : "StatefulPartitionedCall\/ssd_mobile_net_v2keras_feature_extractor\/functional_1\/block_5_expand_relu\/Relu6__relu6_neg__",
      "beta" : 0
    },
    {
      "bottom" : "StatefulPartitionedCall\/ssd_mobile_net_v2keras_feature_extractor\/functional_1\/block_5_expand_relu\/Relu6__relu6_neg__",
      "alpha" : -6,
      "operation" : 25,
      "weights" : {

      },
      "fused_relu" : 0,
      "debug_info" : "StatefulPartitionedCall\/ssd_mobile_net_v2keras_feature_extractor\/functional_1\/block_5_expand_relu\/Relu6__relu6_threshold6__",
      "top" : "StatefulPartitionedCall\/ssd_mobile_net_v2keras_feature_extractor\/functional_1\/block_5_expand_relu\/Relu6__relu6_threshold6__",
      "type" : "elementwise",
      "name" : "StatefulPartitionedCall\/ssd_mobile_net_v2keras_feature_extractor\/functional_1\/block_5_expand_relu\/Relu6__relu6_threshold6__",
      "beta" : 0
    },
    {
      "alpha" : -1,
      "bottom" : "StatefulPartitionedCall\/ssd_mobile_net_v2keras_feature_extractor\/functional_1\/block_5_expand_relu\/Relu6__relu6_threshold6__",
      "weights" : {

      },
      "mode" : 6,
      "debug_info" : "StatefulPartitionedCall\/ssd_mobile_net_v2keras_feature_extractor\/functional_1\/block_5_expand_relu\/Relu6",
      "top" : "StatefulPartitionedCall\/ssd_mobile_net_v2keras_feature_extractor\/functional_1\/block_5_expand_relu\/Relu6",
      "type" : "activation",
      "name" : "StatefulPartitionedCall\/ssd_mobile_net_v2keras_feature_extractor\/functional_1\/block_5_expand_relu\/Relu6",
      "beta" : 0
    },
    {
      "pad_r" : 0,
      "fused_relu" : 1,
      "fused_tanh" : 0,
      "debug_info" : "StatefulPartitionedCall\/ssd_mobile_net_v2keras_feature_extractor\/functional_1\/block_5_depthwise_BN\/FusedBatchNormV3_nchw",
      "pad_fill_mode" : 0,
      "pad_b" : 0,
      "pad_l" : 0,
      "top" : "StatefulPartitionedCall\/ssd_mobile_net_v2keras_feature_extractor\/functional_1\/block_5_depthwise_relu\/Relu6__relu6_relu__",
      "blob_weights" : 69,
      "K" : 192,
      "blob_biases" : 67,
      "name" : "StatefulPartitionedCall\/ssd_mobile_net_v2keras_feature_extractor\/functional_1\/block_5_depthwise_BN\/FusedBatchNormV3_nchw",
      "has_batch_norm" : 0,
      "type" : "convolution",
      "n_groups" : 192,
      "pad_t" : 0,
      "has_biases" : 1,
      "C" : 192,
      "bottom" : "StatefulPartitionedCall\/ssd_mobile_net_v2keras_feature_extractor\/functional_1\/block_5_expand_relu\/Relu6",
      "weights" : {

      },
      "Nx" : 3,
      "pad_mode" : 1,
      "pad_value" : 0,
      "Ny" : 3,
      "n_parallel" : 1
    },
    {
      "alpha" : -1,
      "bottom" : "StatefulPartitionedCall\/ssd_mobile_net_v2keras_feature_extractor\/functional_1\/block_5_depthwise_relu\/Relu6__relu6_relu__",
      "weights" : {

      },
      "mode" : 6,
      "debug_info" : "StatefulPartitionedCall\/ssd_mobile_net_v2keras_feature_extractor\/functional_1\/block_5_depthwise_relu\/Relu6__relu6_neg__",
      "top" : "StatefulPartitionedCall\/ssd_mobile_net_v2keras_feature_extractor\/functional_1\/block_5_depthwise_relu\/Relu6__relu6_neg__",
      "type" : "activation",
      "name" : "StatefulPartitionedCall\/ssd_mobile_net_v2keras_feature_extractor\/functional_1\/block_5_depthwise_relu\/Relu6__relu6_neg__",
      "beta" : 0
    },
    {
      "bottom" : "StatefulPartitionedCall\/ssd_mobile_net_v2keras_feature_extractor\/functional_1\/block_5_depthwise_relu\/Relu6__relu6_neg__",
      "alpha" : -6,
      "operation" : 25,
      "weights" : {

      },
      "fused_relu" : 0,
      "debug_info" : "StatefulPartitionedCall\/ssd_mobile_net_v2keras_feature_extractor\/functional_1\/block_5_depthwise_relu\/Relu6__relu6_threshold6__",
      "top" : "StatefulPartitionedCall\/ssd_mobile_net_v2keras_feature_extractor\/functional_1\/block_5_depthwise_relu\/Relu6__relu6_threshold6__",
      "type" : "elementwise",
      "name" : "StatefulPartitionedCall\/ssd_mobile_net_v2keras_feature_extractor\/functional_1\/block_5_depthwise_relu\/Relu6__relu6_threshold6__",
      "beta" : 0
    },
    {
      "alpha" : -1,
      "bottom" : "StatefulPartitionedCall\/ssd_mobile_net_v2keras_feature_extractor\/functional_1\/block_5_depthwise_relu\/Relu6__relu6_threshold6__",
      "weights" : {

      },
      "mode" : 6,
      "debug_info" : "StatefulPartitionedCall\/ssd_mobile_net_v2keras_feature_extractor\/functional_1\/block_5_depthwise_relu\/Relu6",
      "top" : "StatefulPartitionedCall\/ssd_mobile_net_v2keras_feature_extractor\/functional_1\/block_5_depthwise_relu\/Relu6",
      "type" : "activation",
      "name" : "StatefulPartitionedCall\/ssd_mobile_net_v2keras_feature_extractor\/functional_1\/block_5_depthwise_relu\/Relu6",
      "beta" : 0
    },
    {
      "pad_r" : 0,
      "fused_relu" : 0,
      "fused_tanh" : 0,
      "debug_info" : "StatefulPartitionedCall\/ssd_mobile_net_v2keras_feature_extractor\/functional_1\/block_5_project_BN\/FusedBatchNormV3_nchw",
      "pad_fill_mode" : 0,
      "pad_b" : 0,
      "pad_l" : 0,
      "top" : "StatefulPartitionedCall\/ssd_mobile_net_v2keras_feature_extractor\/functional_1\/block_5_project_BN\/FusedBatchNormV3_nchw",
      "blob_weights" : 73,
      "K" : 192,
      "blob_biases" : 71,
      "name" : "StatefulPartitionedCall\/ssd_mobile_net_v2keras_feature_extractor\/functional_1\/block_5_project_BN\/FusedBatchNormV3_nchw",
      "has_batch_norm" : 0,
      "type" : "convolution",
      "n_groups" : 1,
      "pad_t" : 0,
      "has_biases" : 1,
      "C" : 32,
      "bottom" : "StatefulPartitionedCall\/ssd_mobile_net_v2keras_feature_extractor\/functional_1\/block_5_depthwise_relu\/Relu6",
      "weights" : {

      },
      "Nx" : 1,
      "pad_mode" : 1,
      "pad_value" : 0,
      "Ny" : 1,
      "n_parallel" : 1
    },
    {
      "bottom" : "StatefulPartitionedCall\/ssd_mobile_net_v2keras_feature_extractor\/functional_1\/block_4_add\/add,StatefulPartitionedCall\/ssd_mobile_net_v2keras_feature_extractor\/functional_1\/block_5_project_BN\/FusedBatchNormV3_nchw",
      "alpha" : 1,
      "operation" : 0,
      "weights" : {

      },
      "fused_relu" : 0,
      "debug_info" : "StatefulPartitionedCall\/ssd_mobile_net_v2keras_feature_extractor\/functional_1\/block_5_add\/add",
      "top" : "StatefulPartitionedCall\/ssd_mobile_net_v2keras_feature_extractor\/functional_1\/block_5_add\/add",
      "type" : "elementwise",
      "name" : "StatefulPartitionedCall\/ssd_mobile_net_v2keras_feature_extractor\/functional_1\/block_5_add\/add",
      "beta" : 0
    },
    {
      "pad_r" : 0,
      "fused_relu" : 1,
      "fused_tanh" : 0,
      "debug_info" : "StatefulPartitionedCall\/ssd_mobile_net_v2keras_feature_extractor\/functional_1\/block_6_expand_BN\/FusedBatchNormV3_nchw",
      "pad_fill_mode" : 0,
      "pad_b" : 0,
      "pad_l" : 0,
      "top" : "StatefulPartitionedCall\/ssd_mobile_net_v2keras_feature_extractor\/functional_1\/block_6_expand_relu\/Relu6__relu6_relu__",
      "blob_weights" : 77,
      "K" : 32,
      "blob_biases" : 75,
      "name" : "StatefulPartitionedCall\/ssd_mobile_net_v2keras_feature_extractor\/functional_1\/block_6_expand_BN\/FusedBatchNormV3_nchw",
      "has_batch_norm" : 0,
      "type" : "convolution",
      "n_groups" : 1,
      "pad_t" : 0,
      "has_biases" : 1,
      "C" : 192,
      "bottom" : "StatefulPartitionedCall\/ssd_mobile_net_v2keras_feature_extractor\/functional_1\/block_5_add\/add",
      "weights" : {

      },
      "Nx" : 1,
      "pad_mode" : 1,
      "pad_value" : 0,
      "Ny" : 1,
      "n_parallel" : 1
    },
    {
      "alpha" : -1,
      "bottom" : "StatefulPartitionedCall\/ssd_mobile_net_v2keras_feature_extractor\/functional_1\/block_6_expand_relu\/Relu6__relu6_relu__",
      "weights" : {

      },
      "mode" : 6,
      "debug_info" : "StatefulPartitionedCall\/ssd_mobile_net_v2keras_feature_extractor\/functional_1\/block_6_expand_relu\/Relu6__relu6_neg__",
      "top" : "StatefulPartitionedCall\/ssd_mobile_net_v2keras_feature_extractor\/functional_1\/block_6_expand_relu\/Relu6__relu6_neg__",
      "type" : "activation",
      "name" : "StatefulPartitionedCall\/ssd_mobile_net_v2keras_feature_extractor\/functional_1\/block_6_expand_relu\/Relu6__relu6_neg__",
      "beta" : 0
    },
    {
      "bottom" : "StatefulPartitionedCall\/ssd_mobile_net_v2keras_feature_extractor\/functional_1\/block_6_expand_relu\/Relu6__relu6_neg__",
      "alpha" : -6,
      "operation" : 25,
      "weights" : {

      },
      "fused_relu" : 0,
      "debug_info" : "StatefulPartitionedCall\/ssd_mobile_net_v2keras_feature_extractor\/functional_1\/block_6_expand_relu\/Relu6__relu6_threshold6__",
      "top" : "StatefulPartitionedCall\/ssd_mobile_net_v2keras_feature_extractor\/functional_1\/block_6_expand_relu\/Relu6__relu6_threshold6__",
      "type" : "elementwise",
      "name" : "StatefulPartitionedCall\/ssd_mobile_net_v2keras_feature_extractor\/functional_1\/block_6_expand_relu\/Relu6__relu6_threshold6__",
      "beta" : 0
    },
    {
      "alpha" : -1,
      "bottom" : "StatefulPartitionedCall\/ssd_mobile_net_v2keras_feature_extractor\/functional_1\/block_6_expand_relu\/Relu6__relu6_threshold6__",
      "weights" : {

      },
      "mode" : 6,
      "debug_info" : "StatefulPartitionedCall\/ssd_mobile_net_v2keras_feature_extractor\/functional_1\/block_6_expand_relu\/Relu6",
      "top" : "StatefulPartitionedCall\/ssd_mobile_net_v2keras_feature_extractor\/functional_1\/block_6_expand_relu\/Relu6",
      "type" : "activation",
      "name" : "StatefulPartitionedCall\/ssd_mobile_net_v2keras_feature_extractor\/functional_1\/block_6_expand_relu\/Relu6",
      "beta" : 0
    },
    {
      "pad_r" : 0,
      "fused_relu" : 1,
      "fused_tanh" : 0,
      "debug_info" : "StatefulPartitionedCall\/ssd_mobile_net_v2keras_feature_extractor\/functional_1\/block_6_depthwise_BN\/FusedBatchNormV3_nchw",
      "pad_fill_mode" : 0,
      "pad_b" : 0,
      "pad_l" : 0,
      "top" : "StatefulPartitionedCall\/ssd_mobile_net_v2keras_feature_extractor\/functional_1\/block_6_depthwise_relu\/Relu6__relu6_relu__",
      "blob_weights" : 81,
      "K" : 192,
      "blob_biases" : 79,
      "stride_x" : 2,
      "name" : "StatefulPartitionedCall\/ssd_mobile_net_v2keras_feature_extractor\/functional_1\/block_6_depthwise_BN\/FusedBatchNormV3_nchw",
      "has_batch_norm" : 0,
      "type" : "convolution",
      "n_groups" : 192,
      "pad_t" : 0,
      "stride_y" : 2,
      "has_biases" : 1,
      "C" : 192,
      "bottom" : "StatefulPartitionedCall\/ssd_mobile_net_v2keras_feature_extractor\/functional_1\/block_6_expand_relu\/Relu6",
      "weights" : {

      },
      "Nx" : 3,
      "pad_mode" : 1,
      "pad_value" : 0,
      "Ny" : 3,
      "n_parallel" : 1
    },
    {
      "alpha" : -1,
      "bottom" : "StatefulPartitionedCall\/ssd_mobile_net_v2keras_feature_extractor\/functional_1\/block_6_depthwise_relu\/Relu6__relu6_relu__",
      "weights" : {

      },
      "mode" : 6,
      "debug_info" : "StatefulPartitionedCall\/ssd_mobile_net_v2keras_feature_extractor\/functional_1\/block_6_depthwise_relu\/Relu6__relu6_neg__",
      "top" : "StatefulPartitionedCall\/ssd_mobile_net_v2keras_feature_extractor\/functional_1\/block_6_depthwise_relu\/Relu6__relu6_neg__",
      "type" : "activation",
      "name" : "StatefulPartitionedCall\/ssd_mobile_net_v2keras_feature_extractor\/functional_1\/block_6_depthwise_relu\/Relu6__relu6_neg__",
      "beta" : 0
    },
    {
      "bottom" : "StatefulPartitionedCall\/ssd_mobile_net_v2keras_feature_extractor\/functional_1\/block_6_depthwise_relu\/Relu6__relu6_neg__",
      "alpha" : -6,
      "operation" : 25,
      "weights" : {

      },
      "fused_relu" : 0,
      "debug_info" : "StatefulPartitionedCall\/ssd_mobile_net_v2keras_feature_extractor\/functional_1\/block_6_depthwise_relu\/Relu6__relu6_threshold6__",
      "top" : "StatefulPartitionedCall\/ssd_mobile_net_v2keras_feature_extractor\/functional_1\/block_6_depthwise_relu\/Relu6__relu6_threshold6__",
      "type" : "elementwise",
      "name" : "StatefulPartitionedCall\/ssd_mobile_net_v2keras_feature_extractor\/functional_1\/block_6_depthwise_relu\/Relu6__relu6_threshold6__",
      "beta" : 0
    },
    {
      "alpha" : -1,
      "bottom" : "StatefulPartitionedCall\/ssd_mobile_net_v2keras_feature_extractor\/functional_1\/block_6_depthwise_relu\/Relu6__relu6_threshold6__",
      "weights" : {

      },
      "mode" : 6,
      "debug_info" : "StatefulPartitionedCall\/ssd_mobile_net_v2keras_feature_extractor\/functional_1\/block_6_depthwise_relu\/Relu6",
      "top" : "StatefulPartitionedCall\/ssd_mobile_net_v2keras_feature_extractor\/functional_1\/block_6_depthwise_relu\/Relu6",
      "type" : "activation",
      "name" : "StatefulPartitionedCall\/ssd_mobile_net_v2keras_feature_extractor\/functional_1\/block_6_depthwise_relu\/Relu6",
      "beta" : 0
    },
    {
      "pad_r" : 0,
      "fused_relu" : 0,
      "fused_tanh" : 0,
      "debug_info" : "StatefulPartitionedCall\/ssd_mobile_net_v2keras_feature_extractor\/functional_1\/block_6_project_BN\/FusedBatchNormV3_nchw",
      "pad_fill_mode" : 0,
      "pad_b" : 0,
      "pad_l" : 0,
      "top" : "StatefulPartitionedCall\/ssd_mobile_net_v2keras_feature_extractor\/functional_1\/block_6_project_BN\/FusedBatchNormV3_nchw",
      "blob_weights" : 85,
      "K" : 192,
      "blob_biases" : 83,
      "name" : "StatefulPartitionedCall\/ssd_mobile_net_v2keras_feature_extractor\/functional_1\/block_6_project_BN\/FusedBatchNormV3_nchw",
      "has_batch_norm" : 0,
      "type" : "convolution",
      "n_groups" : 1,
      "pad_t" : 0,
      "has_biases" : 1,
      "C" : 64,
      "bottom" : "StatefulPartitionedCall\/ssd_mobile_net_v2keras_feature_extractor\/functional_1\/block_6_depthwise_relu\/Relu6",
      "weights" : {

      },
      "Nx" : 1,
      "pad_mode" : 1,
      "pad_value" : 0,
      "Ny" : 1,
      "n_parallel" : 1
    },
    {
      "pad_r" : 0,
      "fused_relu" : 1,
      "fused_tanh" : 0,
      "debug_info" : "StatefulPartitionedCall\/ssd_mobile_net_v2keras_feature_extractor\/functional_1\/block_7_expand_BN\/FusedBatchNormV3_nchw",
      "pad_fill_mode" : 0,
      "pad_b" : 0,
      "pad_l" : 0,
      "top" : "StatefulPartitionedCall\/ssd_mobile_net_v2keras_feature_extractor\/functional_1\/block_7_expand_relu\/Relu6__relu6_relu__",
      "blob_weights" : 89,
      "K" : 64,
      "blob_biases" : 87,
      "name" : "StatefulPartitionedCall\/ssd_mobile_net_v2keras_feature_extractor\/functional_1\/block_7_expand_BN\/FusedBatchNormV3_nchw",
      "has_batch_norm" : 0,
      "type" : "convolution",
      "n_groups" : 1,
      "pad_t" : 0,
      "has_biases" : 1,
      "C" : 384,
      "bottom" : "StatefulPartitionedCall\/ssd_mobile_net_v2keras_feature_extractor\/functional_1\/block_6_project_BN\/FusedBatchNormV3_nchw",
      "weights" : {

      },
      "Nx" : 1,
      "pad_mode" : 1,
      "pad_value" : 0,
      "Ny" : 1,
      "n_parallel" : 1
    },
    {
      "alpha" : -1,
      "bottom" : "StatefulPartitionedCall\/ssd_mobile_net_v2keras_feature_extractor\/functional_1\/block_7_expand_relu\/Relu6__relu6_relu__",
      "weights" : {

      },
      "mode" : 6,
      "debug_info" : "StatefulPartitionedCall\/ssd_mobile_net_v2keras_feature_extractor\/functional_1\/block_7_expand_relu\/Relu6__relu6_neg__",
      "top" : "StatefulPartitionedCall\/ssd_mobile_net_v2keras_feature_extractor\/functional_1\/block_7_expand_relu\/Relu6__relu6_neg__",
      "type" : "activation",
      "name" : "StatefulPartitionedCall\/ssd_mobile_net_v2keras_feature_extractor\/functional_1\/block_7_expand_relu\/Relu6__relu6_neg__",
      "beta" : 0
    },
    {
      "bottom" : "StatefulPartitionedCall\/ssd_mobile_net_v2keras_feature_extractor\/functional_1\/block_7_expand_relu\/Relu6__relu6_neg__",
      "alpha" : -6,
      "operation" : 25,
      "weights" : {

      },
      "fused_relu" : 0,
      "debug_info" : "StatefulPartitionedCall\/ssd_mobile_net_v2keras_feature_extractor\/functional_1\/block_7_expand_relu\/Relu6__relu6_threshold6__",
      "top" : "StatefulPartitionedCall\/ssd_mobile_net_v2keras_feature_extractor\/functional_1\/block_7_expand_relu\/Relu6__relu6_threshold6__",
      "type" : "elementwise",
      "name" : "StatefulPartitionedCall\/ssd_mobile_net_v2keras_feature_extractor\/functional_1\/block_7_expand_relu\/Relu6__relu6_threshold6__",
      "beta" : 0
    },
    {
      "alpha" : -1,
      "bottom" : "StatefulPartitionedCall\/ssd_mobile_net_v2keras_feature_extractor\/functional_1\/block_7_expand_relu\/Relu6__relu6_threshold6__",
      "weights" : {

      },
      "mode" : 6,
      "debug_info" : "StatefulPartitionedCall\/ssd_mobile_net_v2keras_feature_extractor\/functional_1\/block_7_expand_relu\/Relu6",
      "top" : "StatefulPartitionedCall\/ssd_mobile_net_v2keras_feature_extractor\/functional_1\/block_7_expand_relu\/Relu6",
      "type" : "activation",
      "name" : "StatefulPartitionedCall\/ssd_mobile_net_v2keras_feature_extractor\/functional_1\/block_7_expand_relu\/Relu6",
      "beta" : 0
    },
    {
      "pad_r" : 0,
      "fused_relu" : 1,
      "fused_tanh" : 0,
      "debug_info" : "StatefulPartitionedCall\/ssd_mobile_net_v2keras_feature_extractor\/functional_1\/block_7_depthwise_BN\/FusedBatchNormV3_nchw",
      "pad_fill_mode" : 0,
      "pad_b" : 0,
      "pad_l" : 0,
      "top" : "StatefulPartitionedCall\/ssd_mobile_net_v2keras_feature_extractor\/functional_1\/block_7_depthwise_relu\/Relu6__relu6_relu__",
      "blob_weights" : 93,
      "K" : 384,
      "blob_biases" : 91,
      "name" : "StatefulPartitionedCall\/ssd_mobile_net_v2keras_feature_extractor\/functional_1\/block_7_depthwise_BN\/FusedBatchNormV3_nchw",
      "has_batch_norm" : 0,
      "type" : "convolution",
      "n_groups" : 384,
      "pad_t" : 0,
      "has_biases" : 1,
      "C" : 384,
      "bottom" : "StatefulPartitionedCall\/ssd_mobile_net_v2keras_feature_extractor\/functional_1\/block_7_expand_relu\/Relu6",
      "weights" : {

      },
      "Nx" : 3,
      "pad_mode" : 1,
      "pad_value" : 0,
      "Ny" : 3,
      "n_parallel" : 1
    },
    {
      "alpha" : -1,
      "bottom" : "StatefulPartitionedCall\/ssd_mobile_net_v2keras_feature_extractor\/functional_1\/block_7_depthwise_relu\/Relu6__relu6_relu__",
      "weights" : {

      },
      "mode" : 6,
      "debug_info" : "StatefulPartitionedCall\/ssd_mobile_net_v2keras_feature_extractor\/functional_1\/block_7_depthwise_relu\/Relu6__relu6_neg__",
      "top" : "StatefulPartitionedCall\/ssd_mobile_net_v2keras_feature_extractor\/functional_1\/block_7_depthwise_relu\/Relu6__relu6_neg__",
      "type" : "activation",
      "name" : "StatefulPartitionedCall\/ssd_mobile_net_v2keras_feature_extractor\/functional_1\/block_7_depthwise_relu\/Relu6__relu6_neg__",
      "beta" : 0
    },
    {
      "bottom" : "StatefulPartitionedCall\/ssd_mobile_net_v2keras_feature_extractor\/functional_1\/block_7_depthwise_relu\/Relu6__relu6_neg__",
      "alpha" : -6,
      "operation" : 25,
      "weights" : {

      },
      "fused_relu" : 0,
      "debug_info" : "StatefulPartitionedCall\/ssd_mobile_net_v2keras_feature_extractor\/functional_1\/block_7_depthwise_relu\/Relu6__relu6_threshold6__",
      "top" : "StatefulPartitionedCall\/ssd_mobile_net_v2keras_feature_extractor\/functional_1\/block_7_depthwise_relu\/Relu6__relu6_threshold6__",
      "type" : "elementwise",
      "name" : "StatefulPartitionedCall\/ssd_mobile_net_v2keras_feature_extractor\/functional_1\/block_7_depthwise_relu\/Relu6__relu6_threshold6__",
      "beta" : 0
    },
    {
      "alpha" : -1,
      "bottom" : "StatefulPartitionedCall\/ssd_mobile_net_v2keras_feature_extractor\/functional_1\/block_7_depthwise_relu\/Relu6__relu6_threshold6__",
      "weights" : {

      },
      "mode" : 6,
      "debug_info" : "StatefulPartitionedCall\/ssd_mobile_net_v2keras_feature_extractor\/functional_1\/block_7_depthwise_relu\/Relu6",
      "top" : "StatefulPartitionedCall\/ssd_mobile_net_v2keras_feature_extractor\/functional_1\/block_7_depthwise_relu\/Relu6",
      "type" : "activation",
      "name" : "StatefulPartitionedCall\/ssd_mobile_net_v2keras_feature_extractor\/functional_1\/block_7_depthwise_relu\/Relu6",
      "beta" : 0
    },
    {
      "pad_r" : 0,
      "fused_relu" : 0,
      "fused_tanh" : 0,
      "debug_info" : "StatefulPartitionedCall\/ssd_mobile_net_v2keras_feature_extractor\/functional_1\/block_7_project_BN\/FusedBatchNormV3_nchw",
      "pad_fill_mode" : 0,
      "pad_b" : 0,
      "pad_l" : 0,
      "top" : "StatefulPartitionedCall\/ssd_mobile_net_v2keras_feature_extractor\/functional_1\/block_7_project_BN\/FusedBatchNormV3_nchw",
      "blob_weights" : 97,
      "K" : 384,
      "blob_biases" : 95,
      "name" : "StatefulPartitionedCall\/ssd_mobile_net_v2keras_feature_extractor\/functional_1\/block_7_project_BN\/FusedBatchNormV3_nchw",
      "has_batch_norm" : 0,
      "type" : "convolution",
      "n_groups" : 1,
      "pad_t" : 0,
      "has_biases" : 1,
      "C" : 64,
      "bottom" : "StatefulPartitionedCall\/ssd_mobile_net_v2keras_feature_extractor\/functional_1\/block_7_depthwise_relu\/Relu6",
      "weights" : {

      },
      "Nx" : 1,
      "pad_mode" : 1,
      "pad_value" : 0,
      "Ny" : 1,
      "n_parallel" : 1
    },
    {
      "bottom" : "StatefulPartitionedCall\/ssd_mobile_net_v2keras_feature_extractor\/functional_1\/block_6_project_BN\/FusedBatchNormV3_nchw,StatefulPartitionedCall\/ssd_mobile_net_v2keras_feature_extractor\/functional_1\/block_7_project_BN\/FusedBatchNormV3_nchw",
      "alpha" : 1,
      "operation" : 0,
      "weights" : {

      },
      "fused_relu" : 0,
      "debug_info" : "StatefulPartitionedCall\/ssd_mobile_net_v2keras_feature_extractor\/functional_1\/block_7_add\/add",
      "top" : "StatefulPartitionedCall\/ssd_mobile_net_v2keras_feature_extractor\/functional_1\/block_7_add\/add",
      "type" : "elementwise",
      "name" : "StatefulPartitionedCall\/ssd_mobile_net_v2keras_feature_extractor\/functional_1\/block_7_add\/add",
      "beta" : 0
    },
    {
      "pad_r" : 0,
      "fused_relu" : 1,
      "fused_tanh" : 0,
      "debug_info" : "StatefulPartitionedCall\/ssd_mobile_net_v2keras_feature_extractor\/functional_1\/block_8_expand_BN\/FusedBatchNormV3_nchw",
      "pad_fill_mode" : 0,
      "pad_b" : 0,
      "pad_l" : 0,
      "top" : "StatefulPartitionedCall\/ssd_mobile_net_v2keras_feature_extractor\/functional_1\/block_8_expand_relu\/Relu6__relu6_relu__",
      "blob_weights" : 101,
      "K" : 64,
      "blob_biases" : 99,
      "name" : "StatefulPartitionedCall\/ssd_mobile_net_v2keras_feature_extractor\/functional_1\/block_8_expand_BN\/FusedBatchNormV3_nchw",
      "has_batch_norm" : 0,
      "type" : "convolution",
      "n_groups" : 1,
      "pad_t" : 0,
      "has_biases" : 1,
      "C" : 384,
      "bottom" : "StatefulPartitionedCall\/ssd_mobile_net_v2keras_feature_extractor\/functional_1\/block_7_add\/add",
      "weights" : {

      },
      "Nx" : 1,
      "pad_mode" : 1,
      "pad_value" : 0,
      "Ny" : 1,
      "n_parallel" : 1
    },
    {
      "alpha" : -1,
      "bottom" : "StatefulPartitionedCall\/ssd_mobile_net_v2keras_feature_extractor\/functional_1\/block_8_expand_relu\/Relu6__relu6_relu__",
      "weights" : {

      },
      "mode" : 6,
      "debug_info" : "StatefulPartitionedCall\/ssd_mobile_net_v2keras_feature_extractor\/functional_1\/block_8_expand_relu\/Relu6__relu6_neg__",
      "top" : "StatefulPartitionedCall\/ssd_mobile_net_v2keras_feature_extractor\/functional_1\/block_8_expand_relu\/Relu6__relu6_neg__",
      "type" : "activation",
      "name" : "StatefulPartitionedCall\/ssd_mobile_net_v2keras_feature_extractor\/functional_1\/block_8_expand_relu\/Relu6__relu6_neg__",
      "beta" : 0
    },
    {
      "bottom" : "StatefulPartitionedCall\/ssd_mobile_net_v2keras_feature_extractor\/functional_1\/block_8_expand_relu\/Relu6__relu6_neg__",
      "alpha" : -6,
      "operation" : 25,
      "weights" : {

      },
      "fused_relu" : 0,
      "debug_info" : "StatefulPartitionedCall\/ssd_mobile_net_v2keras_feature_extractor\/functional_1\/block_8_expand_relu\/Relu6__relu6_threshold6__",
      "top" : "StatefulPartitionedCall\/ssd_mobile_net_v2keras_feature_extractor\/functional_1\/block_8_expand_relu\/Relu6__relu6_threshold6__",
      "type" : "elementwise",
      "name" : "StatefulPartitionedCall\/ssd_mobile_net_v2keras_feature_extractor\/functional_1\/block_8_expand_relu\/Relu6__relu6_threshold6__",
      "beta" : 0
    },
    {
      "alpha" : -1,
      "bottom" : "StatefulPartitionedCall\/ssd_mobile_net_v2keras_feature_extractor\/functional_1\/block_8_expand_relu\/Relu6__relu6_threshold6__",
      "weights" : {

      },
      "mode" : 6,
      "debug_info" : "StatefulPartitionedCall\/ssd_mobile_net_v2keras_feature_extractor\/functional_1\/block_8_expand_relu\/Relu6",
      "top" : "StatefulPartitionedCall\/ssd_mobile_net_v2keras_feature_extractor\/functional_1\/block_8_expand_relu\/Relu6",
      "type" : "activation",
      "name" : "StatefulPartitionedCall\/ssd_mobile_net_v2keras_feature_extractor\/functional_1\/block_8_expand_relu\/Relu6",
      "beta" : 0
    },
    {
      "pad_r" : 0,
      "fused_relu" : 1,
      "fused_tanh" : 0,
      "debug_info" : "StatefulPartitionedCall\/ssd_mobile_net_v2keras_feature_extractor\/functional_1\/block_8_depthwise_BN\/FusedBatchNormV3_nchw",
      "pad_fill_mode" : 0,
      "pad_b" : 0,
      "pad_l" : 0,
      "top" : "StatefulPartitionedCall\/ssd_mobile_net_v2keras_feature_extractor\/functional_1\/block_8_depthwise_relu\/Relu6__relu6_relu__",
      "blob_weights" : 105,
      "K" : 384,
      "blob_biases" : 103,
      "name" : "StatefulPartitionedCall\/ssd_mobile_net_v2keras_feature_extractor\/functional_1\/block_8_depthwise_BN\/FusedBatchNormV3_nchw",
      "has_batch_norm" : 0,
      "type" : "convolution",
      "n_groups" : 384,
      "pad_t" : 0,
      "has_biases" : 1,
      "C" : 384,
      "bottom" : "StatefulPartitionedCall\/ssd_mobile_net_v2keras_feature_extractor\/functional_1\/block_8_expand_relu\/Relu6",
      "weights" : {

      },
      "Nx" : 3,
      "pad_mode" : 1,
      "pad_value" : 0,
      "Ny" : 3,
      "n_parallel" : 1
    },
    {
      "alpha" : -1,
      "bottom" : "StatefulPartitionedCall\/ssd_mobile_net_v2keras_feature_extractor\/functional_1\/block_8_depthwise_relu\/Relu6__relu6_relu__",
      "weights" : {

      },
      "mode" : 6,
      "debug_info" : "StatefulPartitionedCall\/ssd_mobile_net_v2keras_feature_extractor\/functional_1\/block_8_depthwise_relu\/Relu6__relu6_neg__",
      "top" : "StatefulPartitionedCall\/ssd_mobile_net_v2keras_feature_extractor\/functional_1\/block_8_depthwise_relu\/Relu6__relu6_neg__",
      "type" : "activation",
      "name" : "StatefulPartitionedCall\/ssd_mobile_net_v2keras_feature_extractor\/functional_1\/block_8_depthwise_relu\/Relu6__relu6_neg__",
      "beta" : 0
    },
    {
      "bottom" : "StatefulPartitionedCall\/ssd_mobile_net_v2keras_feature_extractor\/functional_1\/block_8_depthwise_relu\/Relu6__relu6_neg__",
      "alpha" : -6,
      "operation" : 25,
      "weights" : {

      },
      "fused_relu" : 0,
      "debug_info" : "StatefulPartitionedCall\/ssd_mobile_net_v2keras_feature_extractor\/functional_1\/block_8_depthwise_relu\/Relu6__relu6_threshold6__",
      "top" : "StatefulPartitionedCall\/ssd_mobile_net_v2keras_feature_extractor\/functional_1\/block_8_depthwise_relu\/Relu6__relu6_threshold6__",
      "type" : "elementwise",
      "name" : "StatefulPartitionedCall\/ssd_mobile_net_v2keras_feature_extractor\/functional_1\/block_8_depthwise_relu\/Relu6__relu6_threshold6__",
      "beta" : 0
    },
    {
      "alpha" : -1,
      "bottom" : "StatefulPartitionedCall\/ssd_mobile_net_v2keras_feature_extractor\/functional_1\/block_8_depthwise_relu\/Relu6__relu6_threshold6__",
      "weights" : {

      },
      "mode" : 6,
      "debug_info" : "StatefulPartitionedCall\/ssd_mobile_net_v2keras_feature_extractor\/functional_1\/block_8_depthwise_relu\/Relu6",
      "top" : "StatefulPartitionedCall\/ssd_mobile_net_v2keras_feature_extractor\/functional_1\/block_8_depthwise_relu\/Relu6",
      "type" : "activation",
      "name" : "StatefulPartitionedCall\/ssd_mobile_net_v2keras_feature_extractor\/functional_1\/block_8_depthwise_relu\/Relu6",
      "beta" : 0
    },
    {
      "pad_r" : 0,
      "fused_relu" : 0,
      "fused_tanh" : 0,
      "debug_info" : "StatefulPartitionedCall\/ssd_mobile_net_v2keras_feature_extractor\/functional_1\/block_8_project_BN\/FusedBatchNormV3_nchw",
      "pad_fill_mode" : 0,
      "pad_b" : 0,
      "pad_l" : 0,
      "top" : "StatefulPartitionedCall\/ssd_mobile_net_v2keras_feature_extractor\/functional_1\/block_8_project_BN\/FusedBatchNormV3_nchw",
      "blob_weights" : 109,
      "K" : 384,
      "blob_biases" : 107,
      "name" : "StatefulPartitionedCall\/ssd_mobile_net_v2keras_feature_extractor\/functional_1\/block_8_project_BN\/FusedBatchNormV3_nchw",
      "has_batch_norm" : 0,
      "type" : "convolution",
      "n_groups" : 1,
      "pad_t" : 0,
      "has_biases" : 1,
      "C" : 64,
      "bottom" : "StatefulPartitionedCall\/ssd_mobile_net_v2keras_feature_extractor\/functional_1\/block_8_depthwise_relu\/Relu6",
      "weights" : {

      },
      "Nx" : 1,
      "pad_mode" : 1,
      "pad_value" : 0,
      "Ny" : 1,
      "n_parallel" : 1
    },
    {
      "bottom" : "StatefulPartitionedCall\/ssd_mobile_net_v2keras_feature_extractor\/functional_1\/block_7_add\/add,StatefulPartitionedCall\/ssd_mobile_net_v2keras_feature_extractor\/functional_1\/block_8_project_BN\/FusedBatchNormV3_nchw",
      "alpha" : 1,
      "operation" : 0,
      "weights" : {

      },
      "fused_relu" : 0,
      "debug_info" : "StatefulPartitionedCall\/ssd_mobile_net_v2keras_feature_extractor\/functional_1\/block_8_add\/add",
      "top" : "StatefulPartitionedCall\/ssd_mobile_net_v2keras_feature_extractor\/functional_1\/block_8_add\/add",
      "type" : "elementwise",
      "name" : "StatefulPartitionedCall\/ssd_mobile_net_v2keras_feature_extractor\/functional_1\/block_8_add\/add",
      "beta" : 0
    },
    {
      "pad_r" : 0,
      "fused_relu" : 1,
      "fused_tanh" : 0,
      "debug_info" : "StatefulPartitionedCall\/ssd_mobile_net_v2keras_feature_extractor\/functional_1\/block_9_expand_BN\/FusedBatchNormV3_nchw",
      "pad_fill_mode" : 0,
      "pad_b" : 0,
      "pad_l" : 0,
      "top" : "StatefulPartitionedCall\/ssd_mobile_net_v2keras_feature_extractor\/functional_1\/block_9_expand_relu\/Relu6__relu6_relu__",
      "blob_weights" : 113,
      "K" : 64,
      "blob_biases" : 111,
      "name" : "StatefulPartitionedCall\/ssd_mobile_net_v2keras_feature_extractor\/functional_1\/block_9_expand_BN\/FusedBatchNormV3_nchw",
      "has_batch_norm" : 0,
      "type" : "convolution",
      "n_groups" : 1,
      "pad_t" : 0,
      "has_biases" : 1,
      "C" : 384,
      "bottom" : "StatefulPartitionedCall\/ssd_mobile_net_v2keras_feature_extractor\/functional_1\/block_8_add\/add",
      "weights" : {

      },
      "Nx" : 1,
      "pad_mode" : 1,
      "pad_value" : 0,
      "Ny" : 1,
      "n_parallel" : 1
    },
    {
      "alpha" : -1,
      "bottom" : "StatefulPartitionedCall\/ssd_mobile_net_v2keras_feature_extractor\/functional_1\/block_9_expand_relu\/Relu6__relu6_relu__",
      "weights" : {

      },
      "mode" : 6,
      "debug_info" : "StatefulPartitionedCall\/ssd_mobile_net_v2keras_feature_extractor\/functional_1\/block_9_expand_relu\/Relu6__relu6_neg__",
      "top" : "StatefulPartitionedCall\/ssd_mobile_net_v2keras_feature_extractor\/functional_1\/block_9_expand_relu\/Relu6__relu6_neg__",
      "type" : "activation",
      "name" : "StatefulPartitionedCall\/ssd_mobile_net_v2keras_feature_extractor\/functional_1\/block_9_expand_relu\/Relu6__relu6_neg__",
      "beta" : 0
    },
    {
      "bottom" : "StatefulPartitionedCall\/ssd_mobile_net_v2keras_feature_extractor\/functional_1\/block_9_expand_relu\/Relu6__relu6_neg__",
      "alpha" : -6,
      "operation" : 25,
      "weights" : {

      },
      "fused_relu" : 0,
      "debug_info" : "StatefulPartitionedCall\/ssd_mobile_net_v2keras_feature_extractor\/functional_1\/block_9_expand_relu\/Relu6__relu6_threshold6__",
      "top" : "StatefulPartitionedCall\/ssd_mobile_net_v2keras_feature_extractor\/functional_1\/block_9_expand_relu\/Relu6__relu6_threshold6__",
      "type" : "elementwise",
      "name" : "StatefulPartitionedCall\/ssd_mobile_net_v2keras_feature_extractor\/functional_1\/block_9_expand_relu\/Relu6__relu6_threshold6__",
      "beta" : 0
    },
    {
      "alpha" : -1,
      "bottom" : "StatefulPartitionedCall\/ssd_mobile_net_v2keras_feature_extractor\/functional_1\/block_9_expand_relu\/Relu6__relu6_threshold6__",
      "weights" : {

      },
      "mode" : 6,
      "debug_info" : "StatefulPartitionedCall\/ssd_mobile_net_v2keras_feature_extractor\/functional_1\/block_9_expand_relu\/Relu6",
      "top" : "StatefulPartitionedCall\/ssd_mobile_net_v2keras_feature_extractor\/functional_1\/block_9_expand_relu\/Relu6",
      "type" : "activation",
      "name" : "StatefulPartitionedCall\/ssd_mobile_net_v2keras_feature_extractor\/functional_1\/block_9_expand_relu\/Relu6",
      "beta" : 0
    },
    {
      "pad_r" : 0,
      "fused_relu" : 1,
      "fused_tanh" : 0,
      "debug_info" : "StatefulPartitionedCall\/ssd_mobile_net_v2keras_feature_extractor\/functional_1\/block_9_depthwise_BN\/FusedBatchNormV3_nchw",
      "pad_fill_mode" : 0,
      "pad_b" : 0,
      "pad_l" : 0,
      "top" : "StatefulPartitionedCall\/ssd_mobile_net_v2keras_feature_extractor\/functional_1\/block_9_depthwise_relu\/Relu6__relu6_relu__",
      "blob_weights" : 117,
      "K" : 384,
      "blob_biases" : 115,
      "name" : "StatefulPartitionedCall\/ssd_mobile_net_v2keras_feature_extractor\/functional_1\/block_9_depthwise_BN\/FusedBatchNormV3_nchw",
      "has_batch_norm" : 0,
      "type" : "convolution",
      "n_groups" : 384,
      "pad_t" : 0,
      "has_biases" : 1,
      "C" : 384,
      "bottom" : "StatefulPartitionedCall\/ssd_mobile_net_v2keras_feature_extractor\/functional_1\/block_9_expand_relu\/Relu6",
      "weights" : {

      },
      "Nx" : 3,
      "pad_mode" : 1,
      "pad_value" : 0,
      "Ny" : 3,
      "n_parallel" : 1
    },
    {
      "alpha" : -1,
      "bottom" : "StatefulPartitionedCall\/ssd_mobile_net_v2keras_feature_extractor\/functional_1\/block_9_depthwise_relu\/Relu6__relu6_relu__",
      "weights" : {

      },
      "mode" : 6,
      "debug_info" : "StatefulPartitionedCall\/ssd_mobile_net_v2keras_feature_extractor\/functional_1\/block_9_depthwise_relu\/Relu6__relu6_neg__",
      "top" : "StatefulPartitionedCall\/ssd_mobile_net_v2keras_feature_extractor\/functional_1\/block_9_depthwise_relu\/Relu6__relu6_neg__",
      "type" : "activation",
      "name" : "StatefulPartitionedCall\/ssd_mobile_net_v2keras_feature_extractor\/functional_1\/block_9_depthwise_relu\/Relu6__relu6_neg__",
      "beta" : 0
    },
    {
      "bottom" : "StatefulPartitionedCall\/ssd_mobile_net_v2keras_feature_extractor\/functional_1\/block_9_depthwise_relu\/Relu6__relu6_neg__",
      "alpha" : -6,
      "operation" : 25,
      "weights" : {

      },
      "fused_relu" : 0,
      "debug_info" : "StatefulPartitionedCall\/ssd_mobile_net_v2keras_feature_extractor\/functional_1\/block_9_depthwise_relu\/Relu6__relu6_threshold6__",
      "top" : "StatefulPartitionedCall\/ssd_mobile_net_v2keras_feature_extractor\/functional_1\/block_9_depthwise_relu\/Relu6__relu6_threshold6__",
      "type" : "elementwise",
      "name" : "StatefulPartitionedCall\/ssd_mobile_net_v2keras_feature_extractor\/functional_1\/block_9_depthwise_relu\/Relu6__relu6_threshold6__",
      "beta" : 0
    },
    {
      "alpha" : -1,
      "bottom" : "StatefulPartitionedCall\/ssd_mobile_net_v2keras_feature_extractor\/functional_1\/block_9_depthwise_relu\/Relu6__relu6_threshold6__",
      "weights" : {

      },
      "mode" : 6,
      "debug_info" : "StatefulPartitionedCall\/ssd_mobile_net_v2keras_feature_extractor\/functional_1\/block_9_depthwise_relu\/Relu6",
      "top" : "StatefulPartitionedCall\/ssd_mobile_net_v2keras_feature_extractor\/functional_1\/block_9_depthwise_relu\/Relu6",
      "type" : "activation",
      "name" : "StatefulPartitionedCall\/ssd_mobile_net_v2keras_feature_extractor\/functional_1\/block_9_depthwise_relu\/Relu6",
      "beta" : 0
    },
    {
      "pad_r" : 0,
      "fused_relu" : 0,
      "fused_tanh" : 0,
      "debug_info" : "StatefulPartitionedCall\/ssd_mobile_net_v2keras_feature_extractor\/functional_1\/block_9_project_BN\/FusedBatchNormV3_nchw",
      "pad_fill_mode" : 0,
      "pad_b" : 0,
      "pad_l" : 0,
      "top" : "StatefulPartitionedCall\/ssd_mobile_net_v2keras_feature_extractor\/functional_1\/block_9_project_BN\/FusedBatchNormV3_nchw",
      "blob_weights" : 121,
      "K" : 384,
      "blob_biases" : 119,
      "name" : "StatefulPartitionedCall\/ssd_mobile_net_v2keras_feature_extractor\/functional_1\/block_9_project_BN\/FusedBatchNormV3_nchw",
      "has_batch_norm" : 0,
      "type" : "convolution",
      "n_groups" : 1,
      "pad_t" : 0,
      "has_biases" : 1,
      "C" : 64,
      "bottom" : "StatefulPartitionedCall\/ssd_mobile_net_v2keras_feature_extractor\/functional_1\/block_9_depthwise_relu\/Relu6",
      "weights" : {

      },
      "Nx" : 1,
      "pad_mode" : 1,
      "pad_value" : 0,
      "Ny" : 1,
      "n_parallel" : 1
    },
    {
      "bottom" : "StatefulPartitionedCall\/ssd_mobile_net_v2keras_feature_extractor\/functional_1\/block_8_add\/add,StatefulPartitionedCall\/ssd_mobile_net_v2keras_feature_extractor\/functional_1\/block_9_project_BN\/FusedBatchNormV3_nchw",
      "alpha" : 1,
      "operation" : 0,
      "weights" : {

      },
      "fused_relu" : 0,
      "debug_info" : "StatefulPartitionedCall\/ssd_mobile_net_v2keras_feature_extractor\/functional_1\/block_9_add\/add",
      "top" : "StatefulPartitionedCall\/ssd_mobile_net_v2keras_feature_extractor\/functional_1\/block_9_add\/add",
      "type" : "elementwise",
      "name" : "StatefulPartitionedCall\/ssd_mobile_net_v2keras_feature_extractor\/functional_1\/block_9_add\/add",
      "beta" : 0
    },
    {
      "pad_r" : 0,
      "fused_relu" : 1,
      "fused_tanh" : 0,
      "debug_info" : "StatefulPartitionedCall\/ssd_mobile_net_v2keras_feature_extractor\/functional_1\/block_10_expand_BN\/FusedBatchNormV3_nchw",
      "pad_fill_mode" : 0,
      "pad_b" : 0,
      "pad_l" : 0,
      "top" : "StatefulPartitionedCall\/ssd_mobile_net_v2keras_feature_extractor\/functional_1\/block_10_expand_relu\/Relu6__relu6_relu__",
      "blob_weights" : 125,
      "K" : 64,
      "blob_biases" : 123,
      "name" : "StatefulPartitionedCall\/ssd_mobile_net_v2keras_feature_extractor\/functional_1\/block_10_expand_BN\/FusedBatchNormV3_nchw",
      "has_batch_norm" : 0,
      "type" : "convolution",
      "n_groups" : 1,
      "pad_t" : 0,
      "has_biases" : 1,
      "C" : 384,
      "bottom" : "StatefulPartitionedCall\/ssd_mobile_net_v2keras_feature_extractor\/functional_1\/block_9_add\/add",
      "weights" : {

      },
      "Nx" : 1,
      "pad_mode" : 1,
      "pad_value" : 0,
      "Ny" : 1,
      "n_parallel" : 1
    },
    {
      "alpha" : -1,
      "bottom" : "StatefulPartitionedCall\/ssd_mobile_net_v2keras_feature_extractor\/functional_1\/block_10_expand_relu\/Relu6__relu6_relu__",
      "weights" : {

      },
      "mode" : 6,
      "debug_info" : "StatefulPartitionedCall\/ssd_mobile_net_v2keras_feature_extractor\/functional_1\/block_10_expand_relu\/Relu6__relu6_neg__",
      "top" : "StatefulPartitionedCall\/ssd_mobile_net_v2keras_feature_extractor\/functional_1\/block_10_expand_relu\/Relu6__relu6_neg__",
      "type" : "activation",
      "name" : "StatefulPartitionedCall\/ssd_mobile_net_v2keras_feature_extractor\/functional_1\/block_10_expand_relu\/Relu6__relu6_neg__",
      "beta" : 0
    },
    {
      "bottom" : "StatefulPartitionedCall\/ssd_mobile_net_v2keras_feature_extractor\/functional_1\/block_10_expand_relu\/Relu6__relu6_neg__",
      "alpha" : -6,
      "operation" : 25,
      "weights" : {

      },
      "fused_relu" : 0,
      "debug_info" : "StatefulPartitionedCall\/ssd_mobile_net_v2keras_feature_extractor\/functional_1\/block_10_expand_relu\/Relu6__relu6_threshold6__",
      "top" : "StatefulPartitionedCall\/ssd_mobile_net_v2keras_feature_extractor\/functional_1\/block_10_expand_relu\/Relu6__relu6_threshold6__",
      "type" : "elementwise",
      "name" : "StatefulPartitionedCall\/ssd_mobile_net_v2keras_feature_extractor\/functional_1\/block_10_expand_relu\/Relu6__relu6_threshold6__",
      "beta" : 0
    },
    {
      "alpha" : -1,
      "bottom" : "StatefulPartitionedCall\/ssd_mobile_net_v2keras_feature_extractor\/functional_1\/block_10_expand_relu\/Relu6__relu6_threshold6__",
      "weights" : {

      },
      "mode" : 6,
      "debug_info" : "StatefulPartitionedCall\/ssd_mobile_net_v2keras_feature_extractor\/functional_1\/block_10_expand_relu\/Relu6",
      "top" : "StatefulPartitionedCall\/ssd_mobile_net_v2keras_feature_extractor\/functional_1\/block_10_expand_relu\/Relu6",
      "type" : "activation",
      "name" : "StatefulPartitionedCall\/ssd_mobile_net_v2keras_feature_extractor\/functional_1\/block_10_expand_relu\/Relu6",
      "beta" : 0
    },
    {
      "pad_r" : 0,
      "fused_relu" : 1,
      "fused_tanh" : 0,
      "debug_info" : "StatefulPartitionedCall\/ssd_mobile_net_v2keras_feature_extractor\/functional_1\/block_10_depthwise_BN\/FusedBatchNormV3_nchw",
      "pad_fill_mode" : 0,
      "pad_b" : 0,
      "pad_l" : 0,
      "top" : "StatefulPartitionedCall\/ssd_mobile_net_v2keras_feature_extractor\/functional_1\/block_10_depthwise_relu\/Relu6__relu6_relu__",
      "blob_weights" : 129,
      "K" : 384,
      "blob_biases" : 127,
      "name" : "StatefulPartitionedCall\/ssd_mobile_net_v2keras_feature_extractor\/functional_1\/block_10_depthwise_BN\/FusedBatchNormV3_nchw",
      "has_batch_norm" : 0,
      "type" : "convolution",
      "n_groups" : 384,
      "pad_t" : 0,
      "has_biases" : 1,
      "C" : 384,
      "bottom" : "StatefulPartitionedCall\/ssd_mobile_net_v2keras_feature_extractor\/functional_1\/block_10_expand_relu\/Relu6",
      "weights" : {

      },
      "Nx" : 3,
      "pad_mode" : 1,
      "pad_value" : 0,
      "Ny" : 3,
      "n_parallel" : 1
    },
    {
      "alpha" : -1,
      "bottom" : "StatefulPartitionedCall\/ssd_mobile_net_v2keras_feature_extractor\/functional_1\/block_10_depthwise_relu\/Relu6__relu6_relu__",
      "weights" : {

      },
      "mode" : 6,
      "debug_info" : "StatefulPartitionedCall\/ssd_mobile_net_v2keras_feature_extractor\/functional_1\/block_10_depthwise_relu\/Relu6__relu6_neg__",
      "top" : "StatefulPartitionedCall\/ssd_mobile_net_v2keras_feature_extractor\/functional_1\/block_10_depthwise_relu\/Relu6__relu6_neg__",
      "type" : "activation",
      "name" : "StatefulPartitionedCall\/ssd_mobile_net_v2keras_feature_extractor\/functional_1\/block_10_depthwise_relu\/Relu6__relu6_neg__",
      "beta" : 0
    },
    {
      "bottom" : "StatefulPartitionedCall\/ssd_mobile_net_v2keras_feature_extractor\/functional_1\/block_10_depthwise_relu\/Relu6__relu6_neg__",
      "alpha" : -6,
      "operation" : 25,
      "weights" : {

      },
      "fused_relu" : 0,
      "debug_info" : "StatefulPartitionedCall\/ssd_mobile_net_v2keras_feature_extractor\/functional_1\/block_10_depthwise_relu\/Relu6__relu6_threshold6__",
      "top" : "StatefulPartitionedCall\/ssd_mobile_net_v2keras_feature_extractor\/functional_1\/block_10_depthwise_relu\/Relu6__relu6_threshold6__",
      "type" : "elementwise",
      "name" : "StatefulPartitionedCall\/ssd_mobile_net_v2keras_feature_extractor\/functional_1\/block_10_depthwise_relu\/Relu6__relu6_threshold6__",
      "beta" : 0
    },
    {
      "alpha" : -1,
      "bottom" : "StatefulPartitionedCall\/ssd_mobile_net_v2keras_feature_extractor\/functional_1\/block_10_depthwise_relu\/Relu6__relu6_threshold6__",
      "weights" : {

      },
      "mode" : 6,
      "debug_info" : "StatefulPartitionedCall\/ssd_mobile_net_v2keras_feature_extractor\/functional_1\/block_10_depthwise_relu\/Relu6",
      "top" : "StatefulPartitionedCall\/ssd_mobile_net_v2keras_feature_extractor\/functional_1\/block_10_depthwise_relu\/Relu6",
      "type" : "activation",
      "name" : "StatefulPartitionedCall\/ssd_mobile_net_v2keras_feature_extractor\/functional_1\/block_10_depthwise_relu\/Relu6",
      "beta" : 0
    },
    {
      "pad_r" : 0,
      "fused_relu" : 0,
      "fused_tanh" : 0,
      "debug_info" : "StatefulPartitionedCall\/ssd_mobile_net_v2keras_feature_extractor\/functional_1\/block_10_project_BN\/FusedBatchNormV3_nchw",
      "pad_fill_mode" : 0,
      "pad_b" : 0,
      "pad_l" : 0,
      "top" : "StatefulPartitionedCall\/ssd_mobile_net_v2keras_feature_extractor\/functional_1\/block_10_project_BN\/FusedBatchNormV3_nchw",
      "blob_weights" : 133,
      "K" : 384,
      "blob_biases" : 131,
      "name" : "StatefulPartitionedCall\/ssd_mobile_net_v2keras_feature_extractor\/functional_1\/block_10_project_BN\/FusedBatchNormV3_nchw",
      "has_batch_norm" : 0,
      "type" : "convolution",
      "n_groups" : 1,
      "pad_t" : 0,
      "has_biases" : 1,
      "C" : 96,
      "bottom" : "StatefulPartitionedCall\/ssd_mobile_net_v2keras_feature_extractor\/functional_1\/block_10_depthwise_relu\/Relu6",
      "weights" : {

      },
      "Nx" : 1,
      "pad_mode" : 1,
      "pad_value" : 0,
      "Ny" : 1,
      "n_parallel" : 1
    },
    {
      "pad_r" : 0,
      "fused_relu" : 1,
      "fused_tanh" : 0,
      "debug_info" : "StatefulPartitionedCall\/ssd_mobile_net_v2keras_feature_extractor\/functional_1\/block_11_expand_BN\/FusedBatchNormV3_nchw",
      "pad_fill_mode" : 0,
      "pad_b" : 0,
      "pad_l" : 0,
      "top" : "StatefulPartitionedCall\/ssd_mobile_net_v2keras_feature_extractor\/functional_1\/block_11_expand_relu\/Relu6__relu6_relu__",
      "blob_weights" : 137,
      "K" : 96,
      "blob_biases" : 135,
      "name" : "StatefulPartitionedCall\/ssd_mobile_net_v2keras_feature_extractor\/functional_1\/block_11_expand_BN\/FusedBatchNormV3_nchw",
      "has_batch_norm" : 0,
      "type" : "convolution",
      "n_groups" : 1,
      "pad_t" : 0,
      "has_biases" : 1,
      "C" : 576,
      "bottom" : "StatefulPartitionedCall\/ssd_mobile_net_v2keras_feature_extractor\/functional_1\/block_10_project_BN\/FusedBatchNormV3_nchw",
      "weights" : {

      },
      "Nx" : 1,
      "pad_mode" : 1,
      "pad_value" : 0,
      "Ny" : 1,
      "n_parallel" : 1
    },
    {
      "alpha" : -1,
      "bottom" : "StatefulPartitionedCall\/ssd_mobile_net_v2keras_feature_extractor\/functional_1\/block_11_expand_relu\/Relu6__relu6_relu__",
      "weights" : {

      },
      "mode" : 6,
      "debug_info" : "StatefulPartitionedCall\/ssd_mobile_net_v2keras_feature_extractor\/functional_1\/block_11_expand_relu\/Relu6__relu6_neg__",
      "top" : "StatefulPartitionedCall\/ssd_mobile_net_v2keras_feature_extractor\/functional_1\/block_11_expand_relu\/Relu6__relu6_neg__",
      "type" : "activation",
      "name" : "StatefulPartitionedCall\/ssd_mobile_net_v2keras_feature_extractor\/functional_1\/block_11_expand_relu\/Relu6__relu6_neg__",
      "beta" : 0
    },
    {
      "bottom" : "StatefulPartitionedCall\/ssd_mobile_net_v2keras_feature_extractor\/functional_1\/block_11_expand_relu\/Relu6__relu6_neg__",
      "alpha" : -6,
      "operation" : 25,
      "weights" : {

      },
      "fused_relu" : 0,
      "debug_info" : "StatefulPartitionedCall\/ssd_mobile_net_v2keras_feature_extractor\/functional_1\/block_11_expand_relu\/Relu6__relu6_threshold6__",
      "top" : "StatefulPartitionedCall\/ssd_mobile_net_v2keras_feature_extractor\/functional_1\/block_11_expand_relu\/Relu6__relu6_threshold6__",
      "type" : "elementwise",
      "name" : "StatefulPartitionedCall\/ssd_mobile_net_v2keras_feature_extractor\/functional_1\/block_11_expand_relu\/Relu6__relu6_threshold6__",
      "beta" : 0
    },
    {
      "alpha" : -1,
      "bottom" : "StatefulPartitionedCall\/ssd_mobile_net_v2keras_feature_extractor\/functional_1\/block_11_expand_relu\/Relu6__relu6_threshold6__",
      "weights" : {

      },
      "mode" : 6,
      "debug_info" : "StatefulPartitionedCall\/ssd_mobile_net_v2keras_feature_extractor\/functional_1\/block_11_expand_relu\/Relu6",
      "top" : "StatefulPartitionedCall\/ssd_mobile_net_v2keras_feature_extractor\/functional_1\/block_11_expand_relu\/Relu6",
      "type" : "activation",
      "name" : "StatefulPartitionedCall\/ssd_mobile_net_v2keras_feature_extractor\/functional_1\/block_11_expand_relu\/Relu6",
      "beta" : 0
    },
    {
      "pad_r" : 0,
      "fused_relu" : 1,
      "fused_tanh" : 0,
      "debug_info" : "StatefulPartitionedCall\/ssd_mobile_net_v2keras_feature_extractor\/functional_1\/block_11_depthwise_BN\/FusedBatchNormV3_nchw",
      "pad_fill_mode" : 0,
      "pad_b" : 0,
      "pad_l" : 0,
      "top" : "StatefulPartitionedCall\/ssd_mobile_net_v2keras_feature_extractor\/functional_1\/block_11_depthwise_relu\/Relu6__relu6_relu__",
      "blob_weights" : 141,
      "K" : 576,
      "blob_biases" : 139,
      "name" : "StatefulPartitionedCall\/ssd_mobile_net_v2keras_feature_extractor\/functional_1\/block_11_depthwise_BN\/FusedBatchNormV3_nchw",
      "has_batch_norm" : 0,
      "type" : "convolution",
      "n_groups" : 576,
      "pad_t" : 0,
      "has_biases" : 1,
      "C" : 576,
      "bottom" : "StatefulPartitionedCall\/ssd_mobile_net_v2keras_feature_extractor\/functional_1\/block_11_expand_relu\/Relu6",
      "weights" : {

      },
      "Nx" : 3,
      "pad_mode" : 1,
      "pad_value" : 0,
      "Ny" : 3,
      "n_parallel" : 1
    },
    {
      "alpha" : -1,
      "bottom" : "StatefulPartitionedCall\/ssd_mobile_net_v2keras_feature_extractor\/functional_1\/block_11_depthwise_relu\/Relu6__relu6_relu__",
      "weights" : {

      },
      "mode" : 6,
      "debug_info" : "StatefulPartitionedCall\/ssd_mobile_net_v2keras_feature_extractor\/functional_1\/block_11_depthwise_relu\/Relu6__relu6_neg__",
      "top" : "StatefulPartitionedCall\/ssd_mobile_net_v2keras_feature_extractor\/functional_1\/block_11_depthwise_relu\/Relu6__relu6_neg__",
      "type" : "activation",
      "name" : "StatefulPartitionedCall\/ssd_mobile_net_v2keras_feature_extractor\/functional_1\/block_11_depthwise_relu\/Relu6__relu6_neg__",
      "beta" : 0
    },
    {
      "bottom" : "StatefulPartitionedCall\/ssd_mobile_net_v2keras_feature_extractor\/functional_1\/block_11_depthwise_relu\/Relu6__relu6_neg__",
      "alpha" : -6,
      "operation" : 25,
      "weights" : {

      },
      "fused_relu" : 0,
      "debug_info" : "StatefulPartitionedCall\/ssd_mobile_net_v2keras_feature_extractor\/functional_1\/block_11_depthwise_relu\/Relu6__relu6_threshold6__",
      "top" : "StatefulPartitionedCall\/ssd_mobile_net_v2keras_feature_extractor\/functional_1\/block_11_depthwise_relu\/Relu6__relu6_threshold6__",
      "type" : "elementwise",
      "name" : "StatefulPartitionedCall\/ssd_mobile_net_v2keras_feature_extractor\/functional_1\/block_11_depthwise_relu\/Relu6__relu6_threshold6__",
      "beta" : 0
    },
    {
      "alpha" : -1,
      "bottom" : "StatefulPartitionedCall\/ssd_mobile_net_v2keras_feature_extractor\/functional_1\/block_11_depthwise_relu\/Relu6__relu6_threshold6__",
      "weights" : {

      },
      "mode" : 6,
      "debug_info" : "StatefulPartitionedCall\/ssd_mobile_net_v2keras_feature_extractor\/functional_1\/block_11_depthwise_relu\/Relu6",
      "top" : "StatefulPartitionedCall\/ssd_mobile_net_v2keras_feature_extractor\/functional_1\/block_11_depthwise_relu\/Relu6",
      "type" : "activation",
      "name" : "StatefulPartitionedCall\/ssd_mobile_net_v2keras_feature_extractor\/functional_1\/block_11_depthwise_relu\/Relu6",
      "beta" : 0
    },
    {
      "pad_r" : 0,
      "fused_relu" : 0,
      "fused_tanh" : 0,
      "debug_info" : "StatefulPartitionedCall\/ssd_mobile_net_v2keras_feature_extractor\/functional_1\/block_11_project_BN\/FusedBatchNormV3_nchw",
      "pad_fill_mode" : 0,
      "pad_b" : 0,
      "pad_l" : 0,
      "top" : "StatefulPartitionedCall\/ssd_mobile_net_v2keras_feature_extractor\/functional_1\/block_11_project_BN\/FusedBatchNormV3_nchw",
      "blob_weights" : 145,
      "K" : 576,
      "blob_biases" : 143,
      "name" : "StatefulPartitionedCall\/ssd_mobile_net_v2keras_feature_extractor\/functional_1\/block_11_project_BN\/FusedBatchNormV3_nchw",
      "has_batch_norm" : 0,
      "type" : "convolution",
      "n_groups" : 1,
      "pad_t" : 0,
      "has_biases" : 1,
      "C" : 96,
      "bottom" : "StatefulPartitionedCall\/ssd_mobile_net_v2keras_feature_extractor\/functional_1\/block_11_depthwise_relu\/Relu6",
      "weights" : {

      },
      "Nx" : 1,
      "pad_mode" : 1,
      "pad_value" : 0,
      "Ny" : 1,
      "n_parallel" : 1
    },
    {
      "bottom" : "StatefulPartitionedCall\/ssd_mobile_net_v2keras_feature_extractor\/functional_1\/block_10_project_BN\/FusedBatchNormV3_nchw,StatefulPartitionedCall\/ssd_mobile_net_v2keras_feature_extractor\/functional_1\/block_11_project_BN\/FusedBatchNormV3_nchw",
      "alpha" : 1,
      "operation" : 0,
      "weights" : {

      },
      "fused_relu" : 0,
      "debug_info" : "StatefulPartitionedCall\/ssd_mobile_net_v2keras_feature_extractor\/functional_1\/block_11_add\/add",
      "top" : "StatefulPartitionedCall\/ssd_mobile_net_v2keras_feature_extractor\/functional_1\/block_11_add\/add",
      "type" : "elementwise",
      "name" : "StatefulPartitionedCall\/ssd_mobile_net_v2keras_feature_extractor\/functional_1\/block_11_add\/add",
      "beta" : 0
    },
    {
      "pad_r" : 0,
      "fused_relu" : 1,
      "fused_tanh" : 0,
      "debug_info" : "StatefulPartitionedCall\/ssd_mobile_net_v2keras_feature_extractor\/functional_1\/block_12_expand_BN\/FusedBatchNormV3_nchw",
      "pad_fill_mode" : 0,
      "pad_b" : 0,
      "pad_l" : 0,
      "top" : "StatefulPartitionedCall\/ssd_mobile_net_v2keras_feature_extractor\/functional_1\/block_12_expand_relu\/Relu6__relu6_relu__",
      "blob_weights" : 149,
      "K" : 96,
      "blob_biases" : 147,
      "name" : "StatefulPartitionedCall\/ssd_mobile_net_v2keras_feature_extractor\/functional_1\/block_12_expand_BN\/FusedBatchNormV3_nchw",
      "has_batch_norm" : 0,
      "type" : "convolution",
      "n_groups" : 1,
      "pad_t" : 0,
      "has_biases" : 1,
      "C" : 576,
      "bottom" : "StatefulPartitionedCall\/ssd_mobile_net_v2keras_feature_extractor\/functional_1\/block_11_add\/add",
      "weights" : {

      },
      "Nx" : 1,
      "pad_mode" : 1,
      "pad_value" : 0,
      "Ny" : 1,
      "n_parallel" : 1
    },
    {
      "alpha" : -1,
      "bottom" : "StatefulPartitionedCall\/ssd_mobile_net_v2keras_feature_extractor\/functional_1\/block_12_expand_relu\/Relu6__relu6_relu__",
      "weights" : {

      },
      "mode" : 6,
      "debug_info" : "StatefulPartitionedCall\/ssd_mobile_net_v2keras_feature_extractor\/functional_1\/block_12_expand_relu\/Relu6__relu6_neg__",
      "top" : "StatefulPartitionedCall\/ssd_mobile_net_v2keras_feature_extractor\/functional_1\/block_12_expand_relu\/Relu6__relu6_neg__",
      "type" : "activation",
      "name" : "StatefulPartitionedCall\/ssd_mobile_net_v2keras_feature_extractor\/functional_1\/block_12_expand_relu\/Relu6__relu6_neg__",
      "beta" : 0
    },
    {
      "bottom" : "StatefulPartitionedCall\/ssd_mobile_net_v2keras_feature_extractor\/functional_1\/block_12_expand_relu\/Relu6__relu6_neg__",
      "alpha" : -6,
      "operation" : 25,
      "weights" : {

      },
      "fused_relu" : 0,
      "debug_info" : "StatefulPartitionedCall\/ssd_mobile_net_v2keras_feature_extractor\/functional_1\/block_12_expand_relu\/Relu6__relu6_threshold6__",
      "top" : "StatefulPartitionedCall\/ssd_mobile_net_v2keras_feature_extractor\/functional_1\/block_12_expand_relu\/Relu6__relu6_threshold6__",
      "type" : "elementwise",
      "name" : "StatefulPartitionedCall\/ssd_mobile_net_v2keras_feature_extractor\/functional_1\/block_12_expand_relu\/Relu6__relu6_threshold6__",
      "beta" : 0
    },
    {
      "alpha" : -1,
      "bottom" : "StatefulPartitionedCall\/ssd_mobile_net_v2keras_feature_extractor\/functional_1\/block_12_expand_relu\/Relu6__relu6_threshold6__",
      "weights" : {

      },
      "mode" : 6,
      "debug_info" : "StatefulPartitionedCall\/ssd_mobile_net_v2keras_feature_extractor\/functional_1\/block_12_expand_relu\/Relu6",
      "top" : "StatefulPartitionedCall\/ssd_mobile_net_v2keras_feature_extractor\/functional_1\/block_12_expand_relu\/Relu6",
      "type" : "activation",
      "name" : "StatefulPartitionedCall\/ssd_mobile_net_v2keras_feature_extractor\/functional_1\/block_12_expand_relu\/Relu6",
      "beta" : 0
    },
    {
      "pad_r" : 0,
      "fused_relu" : 1,
      "fused_tanh" : 0,
      "debug_info" : "StatefulPartitionedCall\/ssd_mobile_net_v2keras_feature_extractor\/functional_1\/block_12_depthwise_BN\/FusedBatchNormV3_nchw",
      "pad_fill_mode" : 0,
      "pad_b" : 0,
      "pad_l" : 0,
      "top" : "StatefulPartitionedCall\/ssd_mobile_net_v2keras_feature_extractor\/functional_1\/block_12_depthwise_relu\/Relu6__relu6_relu__",
      "blob_weights" : 153,
      "K" : 576,
      "blob_biases" : 151,
      "name" : "StatefulPartitionedCall\/ssd_mobile_net_v2keras_feature_extractor\/functional_1\/block_12_depthwise_BN\/FusedBatchNormV3_nchw",
      "has_batch_norm" : 0,
      "type" : "convolution",
      "n_groups" : 576,
      "pad_t" : 0,
      "has_biases" : 1,
      "C" : 576,
      "bottom" : "StatefulPartitionedCall\/ssd_mobile_net_v2keras_feature_extractor\/functional_1\/block_12_expand_relu\/Relu6",
      "weights" : {

      },
      "Nx" : 3,
      "pad_mode" : 1,
      "pad_value" : 0,
      "Ny" : 3,
      "n_parallel" : 1
    },
    {
      "alpha" : -1,
      "bottom" : "StatefulPartitionedCall\/ssd_mobile_net_v2keras_feature_extractor\/functional_1\/block_12_depthwise_relu\/Relu6__relu6_relu__",
      "weights" : {

      },
      "mode" : 6,
      "debug_info" : "StatefulPartitionedCall\/ssd_mobile_net_v2keras_feature_extractor\/functional_1\/block_12_depthwise_relu\/Relu6__relu6_neg__",
      "top" : "StatefulPartitionedCall\/ssd_mobile_net_v2keras_feature_extractor\/functional_1\/block_12_depthwise_relu\/Relu6__relu6_neg__",
      "type" : "activation",
      "name" : "StatefulPartitionedCall\/ssd_mobile_net_v2keras_feature_extractor\/functional_1\/block_12_depthwise_relu\/Relu6__relu6_neg__",
      "beta" : 0
    },
    {
      "bottom" : "StatefulPartitionedCall\/ssd_mobile_net_v2keras_feature_extractor\/functional_1\/block_12_depthwise_relu\/Relu6__relu6_neg__",
      "alpha" : -6,
      "operation" : 25,
      "weights" : {

      },
      "fused_relu" : 0,
      "debug_info" : "StatefulPartitionedCall\/ssd_mobile_net_v2keras_feature_extractor\/functional_1\/block_12_depthwise_relu\/Relu6__relu6_threshold6__",
      "top" : "StatefulPartitionedCall\/ssd_mobile_net_v2keras_feature_extractor\/functional_1\/block_12_depthwise_relu\/Relu6__relu6_threshold6__",
      "type" : "elementwise",
      "name" : "StatefulPartitionedCall\/ssd_mobile_net_v2keras_feature_extractor\/functional_1\/block_12_depthwise_relu\/Relu6__relu6_threshold6__",
      "beta" : 0
    },
    {
      "alpha" : -1,
      "bottom" : "StatefulPartitionedCall\/ssd_mobile_net_v2keras_feature_extractor\/functional_1\/block_12_depthwise_relu\/Relu6__relu6_threshold6__",
      "weights" : {

      },
      "mode" : 6,
      "debug_info" : "StatefulPartitionedCall\/ssd_mobile_net_v2keras_feature_extractor\/functional_1\/block_12_depthwise_relu\/Relu6",
      "top" : "StatefulPartitionedCall\/ssd_mobile_net_v2keras_feature_extractor\/functional_1\/block_12_depthwise_relu\/Relu6",
      "type" : "activation",
      "name" : "StatefulPartitionedCall\/ssd_mobile_net_v2keras_feature_extractor\/functional_1\/block_12_depthwise_relu\/Relu6",
      "beta" : 0
    },
    {
      "pad_r" : 0,
      "fused_relu" : 0,
      "fused_tanh" : 0,
      "debug_info" : "StatefulPartitionedCall\/ssd_mobile_net_v2keras_feature_extractor\/functional_1\/block_12_project_BN\/FusedBatchNormV3_nchw",
      "pad_fill_mode" : 0,
      "pad_b" : 0,
      "pad_l" : 0,
      "top" : "StatefulPartitionedCall\/ssd_mobile_net_v2keras_feature_extractor\/functional_1\/block_12_project_BN\/FusedBatchNormV3_nchw",
      "blob_weights" : 157,
      "K" : 576,
      "blob_biases" : 155,
      "name" : "StatefulPartitionedCall\/ssd_mobile_net_v2keras_feature_extractor\/functional_1\/block_12_project_BN\/FusedBatchNormV3_nchw",
      "has_batch_norm" : 0,
      "type" : "convolution",
      "n_groups" : 1,
      "pad_t" : 0,
      "has_biases" : 1,
      "C" : 96,
      "bottom" : "StatefulPartitionedCall\/ssd_mobile_net_v2keras_feature_extractor\/functional_1\/block_12_depthwise_relu\/Relu6",
      "weights" : {

      },
      "Nx" : 1,
      "pad_mode" : 1,
      "pad_value" : 0,
      "Ny" : 1,
      "n_parallel" : 1
    },
    {
      "bottom" : "StatefulPartitionedCall\/ssd_mobile_net_v2keras_feature_extractor\/functional_1\/block_11_add\/add,StatefulPartitionedCall\/ssd_mobile_net_v2keras_feature_extractor\/functional_1\/block_12_project_BN\/FusedBatchNormV3_nchw",
      "alpha" : 1,
      "operation" : 0,
      "weights" : {

      },
      "fused_relu" : 0,
      "debug_info" : "StatefulPartitionedCall\/ssd_mobile_net_v2keras_feature_extractor\/functional_1\/block_12_add\/add",
      "top" : "StatefulPartitionedCall\/ssd_mobile_net_v2keras_feature_extractor\/functional_1\/block_12_add\/add",
      "type" : "elementwise",
      "name" : "StatefulPartitionedCall\/ssd_mobile_net_v2keras_feature_extractor\/functional_1\/block_12_add\/add",
      "beta" : 0
    },
    {
      "pad_r" : 0,
      "fused_relu" : 1,
      "fused_tanh" : 0,
      "debug_info" : "StatefulPartitionedCall\/ssd_mobile_net_v2keras_feature_extractor\/functional_1\/block_13_expand_BN\/FusedBatchNormV3_nchw",
      "pad_fill_mode" : 0,
      "pad_b" : 0,
      "pad_l" : 0,
      "top" : "StatefulPartitionedCall\/ssd_mobile_net_v2keras_feature_extractor\/functional_1\/block_13_expand_relu\/Relu6__relu6_relu__",
      "blob_weights" : 161,
      "K" : 96,
      "blob_biases" : 159,
      "name" : "StatefulPartitionedCall\/ssd_mobile_net_v2keras_feature_extractor\/functional_1\/block_13_expand_BN\/FusedBatchNormV3_nchw",
      "has_batch_norm" : 0,
      "type" : "convolution",
      "n_groups" : 1,
      "pad_t" : 0,
      "has_biases" : 1,
      "C" : 576,
      "bottom" : "StatefulPartitionedCall\/ssd_mobile_net_v2keras_feature_extractor\/functional_1\/block_12_add\/add",
      "weights" : {

      },
      "Nx" : 1,
      "pad_mode" : 1,
      "pad_value" : 0,
      "Ny" : 1,
      "n_parallel" : 1
    },
    {
      "alpha" : -1,
      "bottom" : "StatefulPartitionedCall\/ssd_mobile_net_v2keras_feature_extractor\/functional_1\/block_13_expand_relu\/Relu6__relu6_relu__",
      "weights" : {

      },
      "mode" : 6,
      "debug_info" : "StatefulPartitionedCall\/ssd_mobile_net_v2keras_feature_extractor\/functional_1\/block_13_expand_relu\/Relu6__relu6_neg__",
      "top" : "StatefulPartitionedCall\/ssd_mobile_net_v2keras_feature_extractor\/functional_1\/block_13_expand_relu\/Relu6__relu6_neg__",
      "type" : "activation",
      "name" : "StatefulPartitionedCall\/ssd_mobile_net_v2keras_feature_extractor\/functional_1\/block_13_expand_relu\/Relu6__relu6_neg__",
      "beta" : 0
    },
    {
      "bottom" : "StatefulPartitionedCall\/ssd_mobile_net_v2keras_feature_extractor\/functional_1\/block_13_expand_relu\/Relu6__relu6_neg__",
      "alpha" : -6,
      "operation" : 25,
      "weights" : {

      },
      "fused_relu" : 0,
      "debug_info" : "StatefulPartitionedCall\/ssd_mobile_net_v2keras_feature_extractor\/functional_1\/block_13_expand_relu\/Relu6__relu6_threshold6__",
      "top" : "StatefulPartitionedCall\/ssd_mobile_net_v2keras_feature_extractor\/functional_1\/block_13_expand_relu\/Relu6__relu6_threshold6__",
      "type" : "elementwise",
      "name" : "StatefulPartitionedCall\/ssd_mobile_net_v2keras_feature_extractor\/functional_1\/block_13_expand_relu\/Relu6__relu6_threshold6__",
      "beta" : 0
    },
    {
      "alpha" : -1,
      "bottom" : "StatefulPartitionedCall\/ssd_mobile_net_v2keras_feature_extractor\/functional_1\/block_13_expand_relu\/Relu6__relu6_threshold6__",
      "weights" : {

      },
      "mode" : 6,
      "debug_info" : "StatefulPartitionedCall\/ssd_mobile_net_v2keras_feature_extractor\/functional_1\/block_13_expand_relu\/Relu6",
      "top" : "StatefulPartitionedCall\/ssd_mobile_net_v2keras_feature_extractor\/functional_1\/block_13_expand_relu\/Relu6",
      "type" : "activation",
      "name" : "StatefulPartitionedCall\/ssd_mobile_net_v2keras_feature_extractor\/functional_1\/block_13_expand_relu\/Relu6",
      "beta" : 0
    },
    {
      "pad_r" : 0,
      "fused_relu" : 0,
      "fused_tanh" : 0,
      "debug_info" : "conv_0",
      "pad_fill_mode" : 0,
      "pad_b" : 0,
      "pad_l" : 0,
      "top" : "conv_0",
      "blob_weights" : 165,
      "K" : 576,
      "blob_biases" : 163,
      "name" : "conv_0",
      "has_batch_norm" : 0,
      "type" : "convolution",
      "n_groups" : 1,
      "pad_t" : 0,
      "has_biases" : 1,
      "C" : 12,
      "bottom" : "StatefulPartitionedCall\/ssd_mobile_net_v2keras_feature_extractor\/functional_1\/block_13_expand_relu\/Relu6",
      "weights" : {

      },
      "Nx" : 1,
      "pad_mode" : 1,
      "pad_value" : 0,
      "Ny" : 1,
      "n_parallel" : 1
    },
    {
      "pad_r" : 0,
      "fused_relu" : 1,
      "fused_tanh" : 0,
      "debug_info" : "StatefulPartitionedCall\/ssd_mobile_net_v2keras_feature_extractor\/functional_1\/block_13_depthwise_BN\/FusedBatchNormV3_nchw",
      "pad_fill_mode" : 0,
      "pad_b" : 0,
      "pad_l" : 0,
      "top" : "StatefulPartitionedCall\/ssd_mobile_net_v2keras_feature_extractor\/functional_1\/block_13_depthwise_relu\/Relu6__relu6_relu__",
      "blob_weights" : 169,
      "K" : 576,
      "blob_biases" : 167,
      "stride_x" : 2,
      "name" : "StatefulPartitionedCall\/ssd_mobile_net_v2keras_feature_extractor\/functional_1\/block_13_depthwise_BN\/FusedBatchNormV3_nchw",
      "has_batch_norm" : 0,
      "type" : "convolution",
      "n_groups" : 576,
      "pad_t" : 0,
      "stride_y" : 2,
      "has_biases" : 1,
      "C" : 576,
      "bottom" : "StatefulPartitionedCall\/ssd_mobile_net_v2keras_feature_extractor\/functional_1\/block_13_expand_relu\/Relu6",
      "weights" : {

      },
      "Nx" : 3,
      "pad_mode" : 1,
      "pad_value" : 0,
      "Ny" : 3,
      "n_parallel" : 1
    },
    {
      "pad_r" : 0,
      "fused_relu" : 0,
      "fused_tanh" : 0,
      "debug_info" : "conv_1",
      "pad_fill_mode" : 0,
      "pad_b" : 0,
      "pad_l" : 0,
      "top" : "conv_1",
      "blob_weights" : 173,
      "K" : 576,
      "blob_biases" : 171,
      "name" : "conv_1",
      "has_batch_norm" : 0,
      "type" : "convolution",
      "n_groups" : 1,
      "pad_t" : 0,
      "has_biases" : 1,
      "C" : 273,
      "bottom" : "StatefulPartitionedCall\/ssd_mobile_net_v2keras_feature_extractor\/functional_1\/block_13_expand_relu\/Relu6",
      "weights" : {

      },
      "Nx" : 1,
      "pad_mode" : 1,
      "pad_value" : 0,
      "Ny" : 1,
      "n_parallel" : 1
    },
    {
      "axis_h" : 0,
      "axis_w" : 2,
      "bottom" : "conv_0",
      "axis_k" : 1,
      "axis_n" : 3,
      "axis_seq" : 4,
      "weights" : {

      },
      "debug_info" : "transpose_218",
      "top" : "transpose_218",
      "type" : "transpose",
      "name" : "transpose_218"
    },
    {
      "name" : "StatefulPartitionedCall\/BoxPredictor\/ConvolutionalBoxHead_0\/Reshape",
      "rank_preserving_mode" : true,
      "dst_w" : 4,
      "version" : 1,
      "dst_n" : 1,
      "dst_nd_rank" : 4,
      "weights" : {

      },
      "type" : "reshape",
      "dst_h" : 1,
      "mode" : 0,
      "bottom" : "transpose_218",
      "debug_info" : "StatefulPartitionedCall\/BoxPredictor\/ConvolutionalBoxHead_0\/Reshape",
      "dst_seq" : 0,
      "dst_k" : -1,
      "top" : "StatefulPartitionedCall\/BoxPredictor\/ConvolutionalBoxHead_0\/Reshape"
    },
    {
      "alpha" : -1,
      "bottom" : "StatefulPartitionedCall\/ssd_mobile_net_v2keras_feature_extractor\/functional_1\/block_13_depthwise_relu\/Relu6__relu6_relu__",
      "weights" : {

      },
      "mode" : 6,
      "debug_info" : "StatefulPartitionedCall\/ssd_mobile_net_v2keras_feature_extractor\/functional_1\/block_13_depthwise_relu\/Relu6__relu6_neg__",
      "top" : "StatefulPartitionedCall\/ssd_mobile_net_v2keras_feature_extractor\/functional_1\/block_13_depthwise_relu\/Relu6__relu6_neg__",
      "type" : "activation",
      "name" : "StatefulPartitionedCall\/ssd_mobile_net_v2keras_feature_extractor\/functional_1\/block_13_depthwise_relu\/Relu6__relu6_neg__",
      "beta" : 0
    },
    {
      "bottom" : "StatefulPartitionedCall\/ssd_mobile_net_v2keras_feature_extractor\/functional_1\/block_13_depthwise_relu\/Relu6__relu6_neg__",
      "alpha" : -6,
      "operation" : 25,
      "weights" : {

      },
      "fused_relu" : 0,
      "debug_info" : "StatefulPartitionedCall\/ssd_mobile_net_v2keras_feature_extractor\/functional_1\/block_13_depthwise_relu\/Relu6__relu6_threshold6__",
      "top" : "StatefulPartitionedCall\/ssd_mobile_net_v2keras_feature_extractor\/functional_1\/block_13_depthwise_relu\/Relu6__relu6_threshold6__",
      "type" : "elementwise",
      "name" : "StatefulPartitionedCall\/ssd_mobile_net_v2keras_feature_extractor\/functional_1\/block_13_depthwise_relu\/Relu6__relu6_threshold6__",
      "beta" : 0
    },
    {
      "alpha" : -1,
      "bottom" : "StatefulPartitionedCall\/ssd_mobile_net_v2keras_feature_extractor\/functional_1\/block_13_depthwise_relu\/Relu6__relu6_threshold6__",
      "weights" : {

      },
      "mode" : 6,
      "debug_info" : "StatefulPartitionedCall\/ssd_mobile_net_v2keras_feature_extractor\/functional_1\/block_13_depthwise_relu\/Relu6",
      "top" : "StatefulPartitionedCall\/ssd_mobile_net_v2keras_feature_extractor\/functional_1\/block_13_depthwise_relu\/Relu6",
      "type" : "activation",
      "name" : "StatefulPartitionedCall\/ssd_mobile_net_v2keras_feature_extractor\/functional_1\/block_13_depthwise_relu\/Relu6",
      "beta" : 0
    },
    {
      "axis_h" : 0,
      "axis_w" : 2,
      "bottom" : "conv_1",
      "axis_k" : 1,
      "axis_n" : 3,
      "axis_seq" : 4,
      "weights" : {

      },
      "debug_info" : "transpose_217",
      "top" : "transpose_217",
      "type" : "transpose",
      "name" : "transpose_217"
    },
    {
      "name" : "StatefulPartitionedCall\/BoxPredictor\/ConvolutionalClassHead_0\/Reshape",
      "weights" : {

      },
      "dst_w" : 91,
      "version" : 1,
      "dst_n" : 1,
      "dst_nd_rank" : 3,
      "type" : "reshape",
      "dst_h" : -1,
      "mode" : 0,
      "dynamic_shape" : false,
      "bottom" : "transpose_217",
      "debug_info" : "StatefulPartitionedCall\/BoxPredictor\/ConvolutionalClassHead_0\/Reshape",
      "dst_seq" : 1,
      "dst_k" : 1,
      "top" : "StatefulPartitionedCall\/BoxPredictor\/ConvolutionalClassHead_0\/Reshape"
    },
    {
      "pad_r" : 0,
      "fused_relu" : 0,
      "fused_tanh" : 0,
      "debug_info" : "StatefulPartitionedCall\/ssd_mobile_net_v2keras_feature_extractor\/functional_1\/block_13_project_BN\/FusedBatchNormV3_nchw",
      "pad_fill_mode" : 0,
      "pad_b" : 0,
      "pad_l" : 0,
      "top" : "StatefulPartitionedCall\/ssd_mobile_net_v2keras_feature_extractor\/functional_1\/block_13_project_BN\/FusedBatchNormV3_nchw",
      "blob_weights" : 177,
      "K" : 576,
      "blob_biases" : 175,
      "name" : "StatefulPartitionedCall\/ssd_mobile_net_v2keras_feature_extractor\/functional_1\/block_13_project_BN\/FusedBatchNormV3_nchw",
      "has_batch_norm" : 0,
      "type" : "convolution",
      "n_groups" : 1,
      "pad_t" : 0,
      "has_biases" : 1,
      "C" : 160,
      "bottom" : "StatefulPartitionedCall\/ssd_mobile_net_v2keras_feature_extractor\/functional_1\/block_13_depthwise_relu\/Relu6",
      "weights" : {

      },
      "Nx" : 1,
      "pad_mode" : 1,
      "pad_value" : 0,
      "Ny" : 1,
      "n_parallel" : 1
    },
    {
      "pad_r" : 0,
      "fused_relu" : 1,
      "fused_tanh" : 0,
      "debug_info" : "StatefulPartitionedCall\/ssd_mobile_net_v2keras_feature_extractor\/functional_1\/block_14_expand_BN\/FusedBatchNormV3_nchw",
      "pad_fill_mode" : 0,
      "pad_b" : 0,
      "pad_l" : 0,
      "top" : "StatefulPartitionedCall\/ssd_mobile_net_v2keras_feature_extractor\/functional_1\/block_14_expand_relu\/Relu6__relu6_relu__",
      "blob_weights" : 181,
      "K" : 160,
      "blob_biases" : 179,
      "name" : "StatefulPartitionedCall\/ssd_mobile_net_v2keras_feature_extractor\/functional_1\/block_14_expand_BN\/FusedBatchNormV3_nchw",
      "has_batch_norm" : 0,
      "type" : "convolution",
      "n_groups" : 1,
      "pad_t" : 0,
      "has_biases" : 1,
      "C" : 960,
      "bottom" : "StatefulPartitionedCall\/ssd_mobile_net_v2keras_feature_extractor\/functional_1\/block_13_project_BN\/FusedBatchNormV3_nchw",
      "weights" : {

      },
      "Nx" : 1,
      "pad_mode" : 1,
      "pad_value" : 0,
      "Ny" : 1,
      "n_parallel" : 1
    },
    {
      "alpha" : -1,
      "bottom" : "StatefulPartitionedCall\/ssd_mobile_net_v2keras_feature_extractor\/functional_1\/block_14_expand_relu\/Relu6__relu6_relu__",
      "weights" : {

      },
      "mode" : 6,
      "debug_info" : "StatefulPartitionedCall\/ssd_mobile_net_v2keras_feature_extractor\/functional_1\/block_14_expand_relu\/Relu6__relu6_neg__",
      "top" : "StatefulPartitionedCall\/ssd_mobile_net_v2keras_feature_extractor\/functional_1\/block_14_expand_relu\/Relu6__relu6_neg__",
      "type" : "activation",
      "name" : "StatefulPartitionedCall\/ssd_mobile_net_v2keras_feature_extractor\/functional_1\/block_14_expand_relu\/Relu6__relu6_neg__",
      "beta" : 0
    },
    {
      "bottom" : "StatefulPartitionedCall\/ssd_mobile_net_v2keras_feature_extractor\/functional_1\/block_14_expand_relu\/Relu6__relu6_neg__",
      "alpha" : -6,
      "operation" : 25,
      "weights" : {

      },
      "fused_relu" : 0,
      "debug_info" : "StatefulPartitionedCall\/ssd_mobile_net_v2keras_feature_extractor\/functional_1\/block_14_expand_relu\/Relu6__relu6_threshold6__",
      "top" : "StatefulPartitionedCall\/ssd_mobile_net_v2keras_feature_extractor\/functional_1\/block_14_expand_relu\/Relu6__relu6_threshold6__",
      "type" : "elementwise",
      "name" : "StatefulPartitionedCall\/ssd_mobile_net_v2keras_feature_extractor\/functional_1\/block_14_expand_relu\/Relu6__relu6_threshold6__",
      "beta" : 0
    },
    {
      "alpha" : -1,
      "bottom" : "StatefulPartitionedCall\/ssd_mobile_net_v2keras_feature_extractor\/functional_1\/block_14_expand_relu\/Relu6__relu6_threshold6__",
      "weights" : {

      },
      "mode" : 6,
      "debug_info" : "StatefulPartitionedCall\/ssd_mobile_net_v2keras_feature_extractor\/functional_1\/block_14_expand_relu\/Relu6",
      "top" : "StatefulPartitionedCall\/ssd_mobile_net_v2keras_feature_extractor\/functional_1\/block_14_expand_relu\/Relu6",
      "type" : "activation",
      "name" : "StatefulPartitionedCall\/ssd_mobile_net_v2keras_feature_extractor\/functional_1\/block_14_expand_relu\/Relu6",
      "beta" : 0
    },
    {
      "pad_r" : 0,
      "fused_relu" : 1,
      "fused_tanh" : 0,
      "debug_info" : "StatefulPartitionedCall\/ssd_mobile_net_v2keras_feature_extractor\/functional_1\/block_14_depthwise_BN\/FusedBatchNormV3_nchw",
      "pad_fill_mode" : 0,
      "pad_b" : 0,
      "pad_l" : 0,
      "top" : "StatefulPartitionedCall\/ssd_mobile_net_v2keras_feature_extractor\/functional_1\/block_14_depthwise_relu\/Relu6__relu6_relu__",
      "blob_weights" : 185,
      "K" : 960,
      "blob_biases" : 183,
      "name" : "StatefulPartitionedCall\/ssd_mobile_net_v2keras_feature_extractor\/functional_1\/block_14_depthwise_BN\/FusedBatchNormV3_nchw",
      "has_batch_norm" : 0,
      "type" : "convolution",
      "n_groups" : 960,
      "pad_t" : 0,
      "has_biases" : 1,
      "C" : 960,
      "bottom" : "StatefulPartitionedCall\/ssd_mobile_net_v2keras_feature_extractor\/functional_1\/block_14_expand_relu\/Relu6",
      "weights" : {

      },
      "Nx" : 3,
      "pad_mode" : 1,
      "pad_value" : 0,
      "Ny" : 3,
      "n_parallel" : 1
    },
    {
      "alpha" : -1,
      "bottom" : "StatefulPartitionedCall\/ssd_mobile_net_v2keras_feature_extractor\/functional_1\/block_14_depthwise_relu\/Relu6__relu6_relu__",
      "weights" : {

      },
      "mode" : 6,
      "debug_info" : "StatefulPartitionedCall\/ssd_mobile_net_v2keras_feature_extractor\/functional_1\/block_14_depthwise_relu\/Relu6__relu6_neg__",
      "top" : "StatefulPartitionedCall\/ssd_mobile_net_v2keras_feature_extractor\/functional_1\/block_14_depthwise_relu\/Relu6__relu6_neg__",
      "type" : "activation",
      "name" : "StatefulPartitionedCall\/ssd_mobile_net_v2keras_feature_extractor\/functional_1\/block_14_depthwise_relu\/Relu6__relu6_neg__",
      "beta" : 0
    },
    {
      "bottom" : "StatefulPartitionedCall\/ssd_mobile_net_v2keras_feature_extractor\/functional_1\/block_14_depthwise_relu\/Relu6__relu6_neg__",
      "alpha" : -6,
      "operation" : 25,
      "weights" : {

      },
      "fused_relu" : 0,
      "debug_info" : "StatefulPartitionedCall\/ssd_mobile_net_v2keras_feature_extractor\/functional_1\/block_14_depthwise_relu\/Relu6__relu6_threshold6__",
      "top" : "StatefulPartitionedCall\/ssd_mobile_net_v2keras_feature_extractor\/functional_1\/block_14_depthwise_relu\/Relu6__relu6_threshold6__",
      "type" : "elementwise",
      "name" : "StatefulPartitionedCall\/ssd_mobile_net_v2keras_feature_extractor\/functional_1\/block_14_depthwise_relu\/Relu6__relu6_threshold6__",
      "beta" : 0
    },
    {
      "alpha" : -1,
      "bottom" : "StatefulPartitionedCall\/ssd_mobile_net_v2keras_feature_extractor\/functional_1\/block_14_depthwise_relu\/Relu6__relu6_threshold6__",
      "weights" : {

      },
      "mode" : 6,
      "debug_info" : "StatefulPartitionedCall\/ssd_mobile_net_v2keras_feature_extractor\/functional_1\/block_14_depthwise_relu\/Relu6",
      "top" : "StatefulPartitionedCall\/ssd_mobile_net_v2keras_feature_extractor\/functional_1\/block_14_depthwise_relu\/Relu6",
      "type" : "activation",
      "name" : "StatefulPartitionedCall\/ssd_mobile_net_v2keras_feature_extractor\/functional_1\/block_14_depthwise_relu\/Relu6",
      "beta" : 0
    },
    {
      "pad_r" : 0,
      "fused_relu" : 0,
      "fused_tanh" : 0,
      "debug_info" : "StatefulPartitionedCall\/ssd_mobile_net_v2keras_feature_extractor\/functional_1\/block_14_project_BN\/FusedBatchNormV3_nchw",
      "pad_fill_mode" : 0,
      "pad_b" : 0,
      "pad_l" : 0,
      "top" : "StatefulPartitionedCall\/ssd_mobile_net_v2keras_feature_extractor\/functional_1\/block_14_project_BN\/FusedBatchNormV3_nchw",
      "blob_weights" : 189,
      "K" : 960,
      "blob_biases" : 187,
      "name" : "StatefulPartitionedCall\/ssd_mobile_net_v2keras_feature_extractor\/functional_1\/block_14_project_BN\/FusedBatchNormV3_nchw",
      "has_batch_norm" : 0,
      "type" : "convolution",
      "n_groups" : 1,
      "pad_t" : 0,
      "has_biases" : 1,
      "C" : 160,
      "bottom" : "StatefulPartitionedCall\/ssd_mobile_net_v2keras_feature_extractor\/functional_1\/block_14_depthwise_relu\/Relu6",
      "weights" : {

      },
      "Nx" : 1,
      "pad_mode" : 1,
      "pad_value" : 0,
      "Ny" : 1,
      "n_parallel" : 1
    },
    {
      "bottom" : "StatefulPartitionedCall\/ssd_mobile_net_v2keras_feature_extractor\/functional_1\/block_13_project_BN\/FusedBatchNormV3_nchw,StatefulPartitionedCall\/ssd_mobile_net_v2keras_feature_extractor\/functional_1\/block_14_project_BN\/FusedBatchNormV3_nchw",
      "alpha" : 1,
      "operation" : 0,
      "weights" : {

      },
      "fused_relu" : 0,
      "debug_info" : "StatefulPartitionedCall\/ssd_mobile_net_v2keras_feature_extractor\/functional_1\/block_14_add\/add",
      "top" : "StatefulPartitionedCall\/ssd_mobile_net_v2keras_feature_extractor\/functional_1\/block_14_add\/add",
      "type" : "elementwise",
      "name" : "StatefulPartitionedCall\/ssd_mobile_net_v2keras_feature_extractor\/functional_1\/block_14_add\/add",
      "beta" : 0
    },
    {
      "pad_r" : 0,
      "fused_relu" : 1,
      "fused_tanh" : 0,
      "debug_info" : "StatefulPartitionedCall\/ssd_mobile_net_v2keras_feature_extractor\/functional_1\/block_15_expand_BN\/FusedBatchNormV3_nchw",
      "pad_fill_mode" : 0,
      "pad_b" : 0,
      "pad_l" : 0,
      "top" : "StatefulPartitionedCall\/ssd_mobile_net_v2keras_feature_extractor\/functional_1\/block_15_expand_relu\/Relu6__relu6_relu__",
      "blob_weights" : 193,
      "K" : 160,
      "blob_biases" : 191,
      "name" : "StatefulPartitionedCall\/ssd_mobile_net_v2keras_feature_extractor\/functional_1\/block_15_expand_BN\/FusedBatchNormV3_nchw",
      "has_batch_norm" : 0,
      "type" : "convolution",
      "n_groups" : 1,
      "pad_t" : 0,
      "has_biases" : 1,
      "C" : 960,
      "bottom" : "StatefulPartitionedCall\/ssd_mobile_net_v2keras_feature_extractor\/functional_1\/block_14_add\/add",
      "weights" : {

      },
      "Nx" : 1,
      "pad_mode" : 1,
      "pad_value" : 0,
      "Ny" : 1,
      "n_parallel" : 1
    },
    {
      "alpha" : -1,
      "bottom" : "StatefulPartitionedCall\/ssd_mobile_net_v2keras_feature_extractor\/functional_1\/block_15_expand_relu\/Relu6__relu6_relu__",
      "weights" : {

      },
      "mode" : 6,
      "debug_info" : "StatefulPartitionedCall\/ssd_mobile_net_v2keras_feature_extractor\/functional_1\/block_15_expand_relu\/Relu6__relu6_neg__",
      "top" : "StatefulPartitionedCall\/ssd_mobile_net_v2keras_feature_extractor\/functional_1\/block_15_expand_relu\/Relu6__relu6_neg__",
      "type" : "activation",
      "name" : "StatefulPartitionedCall\/ssd_mobile_net_v2keras_feature_extractor\/functional_1\/block_15_expand_relu\/Relu6__relu6_neg__",
      "beta" : 0
    },
    {
      "bottom" : "StatefulPartitionedCall\/ssd_mobile_net_v2keras_feature_extractor\/functional_1\/block_15_expand_relu\/Relu6__relu6_neg__",
      "alpha" : -6,
      "operation" : 25,
      "weights" : {

      },
      "fused_relu" : 0,
      "debug_info" : "StatefulPartitionedCall\/ssd_mobile_net_v2keras_feature_extractor\/functional_1\/block_15_expand_relu\/Relu6__relu6_threshold6__",
      "top" : "StatefulPartitionedCall\/ssd_mobile_net_v2keras_feature_extractor\/functional_1\/block_15_expand_relu\/Relu6__relu6_threshold6__",
      "type" : "elementwise",
      "name" : "StatefulPartitionedCall\/ssd_mobile_net_v2keras_feature_extractor\/functional_1\/block_15_expand_relu\/Relu6__relu6_threshold6__",
      "beta" : 0
    },
    {
      "alpha" : -1,
      "bottom" : "StatefulPartitionedCall\/ssd_mobile_net_v2keras_feature_extractor\/functional_1\/block_15_expand_relu\/Relu6__relu6_threshold6__",
      "weights" : {

      },
      "mode" : 6,
      "debug_info" : "StatefulPartitionedCall\/ssd_mobile_net_v2keras_feature_extractor\/functional_1\/block_15_expand_relu\/Relu6",
      "top" : "StatefulPartitionedCall\/ssd_mobile_net_v2keras_feature_extractor\/functional_1\/block_15_expand_relu\/Relu6",
      "type" : "activation",
      "name" : "StatefulPartitionedCall\/ssd_mobile_net_v2keras_feature_extractor\/functional_1\/block_15_expand_relu\/Relu6",
      "beta" : 0
    },
    {
      "pad_r" : 0,
      "fused_relu" : 1,
      "fused_tanh" : 0,
      "debug_info" : "StatefulPartitionedCall\/ssd_mobile_net_v2keras_feature_extractor\/functional_1\/block_15_depthwise_BN\/FusedBatchNormV3_nchw",
      "pad_fill_mode" : 0,
      "pad_b" : 0,
      "pad_l" : 0,
      "top" : "StatefulPartitionedCall\/ssd_mobile_net_v2keras_feature_extractor\/functional_1\/block_15_depthwise_relu\/Relu6__relu6_relu__",
      "blob_weights" : 197,
      "K" : 960,
      "blob_biases" : 195,
      "name" : "StatefulPartitionedCall\/ssd_mobile_net_v2keras_feature_extractor\/functional_1\/block_15_depthwise_BN\/FusedBatchNormV3_nchw",
      "has_batch_norm" : 0,
      "type" : "convolution",
      "n_groups" : 960,
      "pad_t" : 0,
      "has_biases" : 1,
      "C" : 960,
      "bottom" : "StatefulPartitionedCall\/ssd_mobile_net_v2keras_feature_extractor\/functional_1\/block_15_expand_relu\/Relu6",
      "weights" : {

      },
      "Nx" : 3,
      "pad_mode" : 1,
      "pad_value" : 0,
      "Ny" : 3,
      "n_parallel" : 1
    },
    {
      "alpha" : -1,
      "bottom" : "StatefulPartitionedCall\/ssd_mobile_net_v2keras_feature_extractor\/functional_1\/block_15_depthwise_relu\/Relu6__relu6_relu__",
      "weights" : {

      },
      "mode" : 6,
      "debug_info" : "StatefulPartitionedCall\/ssd_mobile_net_v2keras_feature_extractor\/functional_1\/block_15_depthwise_relu\/Relu6__relu6_neg__",
      "top" : "StatefulPartitionedCall\/ssd_mobile_net_v2keras_feature_extractor\/functional_1\/block_15_depthwise_relu\/Relu6__relu6_neg__",
      "type" : "activation",
      "name" : "StatefulPartitionedCall\/ssd_mobile_net_v2keras_feature_extractor\/functional_1\/block_15_depthwise_relu\/Relu6__relu6_neg__",
      "beta" : 0
    },
    {
      "bottom" : "StatefulPartitionedCall\/ssd_mobile_net_v2keras_feature_extractor\/functional_1\/block_15_depthwise_relu\/Relu6__relu6_neg__",
      "alpha" : -6,
      "operation" : 25,
      "weights" : {

      },
      "fused_relu" : 0,
      "debug_info" : "StatefulPartitionedCall\/ssd_mobile_net_v2keras_feature_extractor\/functional_1\/block_15_depthwise_relu\/Relu6__relu6_threshold6__",
      "top" : "StatefulPartitionedCall\/ssd_mobile_net_v2keras_feature_extractor\/functional_1\/block_15_depthwise_relu\/Relu6__relu6_threshold6__",
      "type" : "elementwise",
      "name" : "StatefulPartitionedCall\/ssd_mobile_net_v2keras_feature_extractor\/functional_1\/block_15_depthwise_relu\/Relu6__relu6_threshold6__",
      "beta" : 0
    },
    {
      "alpha" : -1,
      "bottom" : "StatefulPartitionedCall\/ssd_mobile_net_v2keras_feature_extractor\/functional_1\/block_15_depthwise_relu\/Relu6__relu6_threshold6__",
      "weights" : {

      },
      "mode" : 6,
      "debug_info" : "StatefulPartitionedCall\/ssd_mobile_net_v2keras_feature_extractor\/functional_1\/block_15_depthwise_relu\/Relu6",
      "top" : "StatefulPartitionedCall\/ssd_mobile_net_v2keras_feature_extractor\/functional_1\/block_15_depthwise_relu\/Relu6",
      "type" : "activation",
      "name" : "StatefulPartitionedCall\/ssd_mobile_net_v2keras_feature_extractor\/functional_1\/block_15_depthwise_relu\/Relu6",
      "beta" : 0
    },
    {
      "pad_r" : 0,
      "fused_relu" : 0,
      "fused_tanh" : 0,
      "debug_info" : "StatefulPartitionedCall\/ssd_mobile_net_v2keras_feature_extractor\/functional_1\/block_15_project_BN\/FusedBatchNormV3_nchw",
      "pad_fill_mode" : 0,
      "pad_b" : 0,
      "pad_l" : 0,
      "top" : "StatefulPartitionedCall\/ssd_mobile_net_v2keras_feature_extractor\/functional_1\/block_15_project_BN\/FusedBatchNormV3_nchw",
      "blob_weights" : 201,
      "K" : 960,
      "blob_biases" : 199,
      "name" : "StatefulPartitionedCall\/ssd_mobile_net_v2keras_feature_extractor\/functional_1\/block_15_project_BN\/FusedBatchNormV3_nchw",
      "has_batch_norm" : 0,
      "type" : "convolution",
      "n_groups" : 1,
      "pad_t" : 0,
      "has_biases" : 1,
      "C" : 160,
      "bottom" : "StatefulPartitionedCall\/ssd_mobile_net_v2keras_feature_extractor\/functional_1\/block_15_depthwise_relu\/Relu6",
      "weights" : {

      },
      "Nx" : 1,
      "pad_mode" : 1,
      "pad_value" : 0,
      "Ny" : 1,
      "n_parallel" : 1
    },
    {
      "bottom" : "StatefulPartitionedCall\/ssd_mobile_net_v2keras_feature_extractor\/functional_1\/block_14_add\/add,StatefulPartitionedCall\/ssd_mobile_net_v2keras_feature_extractor\/functional_1\/block_15_project_BN\/FusedBatchNormV3_nchw",
      "alpha" : 1,
      "operation" : 0,
      "weights" : {

      },
      "fused_relu" : 0,
      "debug_info" : "StatefulPartitionedCall\/ssd_mobile_net_v2keras_feature_extractor\/functional_1\/block_15_add\/add",
      "top" : "StatefulPartitionedCall\/ssd_mobile_net_v2keras_feature_extractor\/functional_1\/block_15_add\/add",
      "type" : "elementwise",
      "name" : "StatefulPartitionedCall\/ssd_mobile_net_v2keras_feature_extractor\/functional_1\/block_15_add\/add",
      "beta" : 0
    },
    {
      "pad_r" : 0,
      "fused_relu" : 1,
      "fused_tanh" : 0,
      "debug_info" : "StatefulPartitionedCall\/ssd_mobile_net_v2keras_feature_extractor\/functional_1\/block_16_expand_BN\/FusedBatchNormV3_nchw",
      "pad_fill_mode" : 0,
      "pad_b" : 0,
      "pad_l" : 0,
      "top" : "StatefulPartitionedCall\/ssd_mobile_net_v2keras_feature_extractor\/functional_1\/block_16_expand_relu\/Relu6__relu6_relu__",
      "blob_weights" : 205,
      "K" : 160,
      "blob_biases" : 203,
      "name" : "StatefulPartitionedCall\/ssd_mobile_net_v2keras_feature_extractor\/functional_1\/block_16_expand_BN\/FusedBatchNormV3_nchw",
      "has_batch_norm" : 0,
      "type" : "convolution",
      "n_groups" : 1,
      "pad_t" : 0,
      "has_biases" : 1,
      "C" : 960,
      "bottom" : "StatefulPartitionedCall\/ssd_mobile_net_v2keras_feature_extractor\/functional_1\/block_15_add\/add",
      "weights" : {

      },
      "Nx" : 1,
      "pad_mode" : 1,
      "pad_value" : 0,
      "Ny" : 1,
      "n_parallel" : 1
    },
    {
      "alpha" : -1,
      "bottom" : "StatefulPartitionedCall\/ssd_mobile_net_v2keras_feature_extractor\/functional_1\/block_16_expand_relu\/Relu6__relu6_relu__",
      "weights" : {

      },
      "mode" : 6,
      "debug_info" : "StatefulPartitionedCall\/ssd_mobile_net_v2keras_feature_extractor\/functional_1\/block_16_expand_relu\/Relu6__relu6_neg__",
      "top" : "StatefulPartitionedCall\/ssd_mobile_net_v2keras_feature_extractor\/functional_1\/block_16_expand_relu\/Relu6__relu6_neg__",
      "type" : "activation",
      "name" : "StatefulPartitionedCall\/ssd_mobile_net_v2keras_feature_extractor\/functional_1\/block_16_expand_relu\/Relu6__relu6_neg__",
      "beta" : 0
    },
    {
      "bottom" : "StatefulPartitionedCall\/ssd_mobile_net_v2keras_feature_extractor\/functional_1\/block_16_expand_relu\/Relu6__relu6_neg__",
      "alpha" : -6,
      "operation" : 25,
      "weights" : {

      },
      "fused_relu" : 0,
      "debug_info" : "StatefulPartitionedCall\/ssd_mobile_net_v2keras_feature_extractor\/functional_1\/block_16_expand_relu\/Relu6__relu6_threshold6__",
      "top" : "StatefulPartitionedCall\/ssd_mobile_net_v2keras_feature_extractor\/functional_1\/block_16_expand_relu\/Relu6__relu6_threshold6__",
      "type" : "elementwise",
      "name" : "StatefulPartitionedCall\/ssd_mobile_net_v2keras_feature_extractor\/functional_1\/block_16_expand_relu\/Relu6__relu6_threshold6__",
      "beta" : 0
    },
    {
      "alpha" : -1,
      "bottom" : "StatefulPartitionedCall\/ssd_mobile_net_v2keras_feature_extractor\/functional_1\/block_16_expand_relu\/Relu6__relu6_threshold6__",
      "weights" : {

      },
      "mode" : 6,
      "debug_info" : "StatefulPartitionedCall\/ssd_mobile_net_v2keras_feature_extractor\/functional_1\/block_16_expand_relu\/Relu6",
      "top" : "StatefulPartitionedCall\/ssd_mobile_net_v2keras_feature_extractor\/functional_1\/block_16_expand_relu\/Relu6",
      "type" : "activation",
      "name" : "StatefulPartitionedCall\/ssd_mobile_net_v2keras_feature_extractor\/functional_1\/block_16_expand_relu\/Relu6",
      "beta" : 0
    },
    {
      "pad_r" : 0,
      "fused_relu" : 1,
      "fused_tanh" : 0,
      "debug_info" : "StatefulPartitionedCall\/ssd_mobile_net_v2keras_feature_extractor\/functional_1\/block_16_depthwise_BN\/FusedBatchNormV3_nchw",
      "pad_fill_mode" : 0,
      "pad_b" : 0,
      "pad_l" : 0,
      "top" : "StatefulPartitionedCall\/ssd_mobile_net_v2keras_feature_extractor\/functional_1\/block_16_depthwise_relu\/Relu6__relu6_relu__",
      "blob_weights" : 209,
      "K" : 960,
      "blob_biases" : 207,
      "name" : "StatefulPartitionedCall\/ssd_mobile_net_v2keras_feature_extractor\/functional_1\/block_16_depthwise_BN\/FusedBatchNormV3_nchw",
      "has_batch_norm" : 0,
      "type" : "convolution",
      "n_groups" : 960,
      "pad_t" : 0,
      "has_biases" : 1,
      "C" : 960,
      "bottom" : "StatefulPartitionedCall\/ssd_mobile_net_v2keras_feature_extractor\/functional_1\/block_16_expand_relu\/Relu6",
      "weights" : {

      },
      "Nx" : 3,
      "pad_mode" : 1,
      "pad_value" : 0,
      "Ny" : 3,
      "n_parallel" : 1
    },
    {
      "alpha" : -1,
      "bottom" : "StatefulPartitionedCall\/ssd_mobile_net_v2keras_feature_extractor\/functional_1\/block_16_depthwise_relu\/Relu6__relu6_relu__",
      "weights" : {

      },
      "mode" : 6,
      "debug_info" : "StatefulPartitionedCall\/ssd_mobile_net_v2keras_feature_extractor\/functional_1\/block_16_depthwise_relu\/Relu6__relu6_neg__",
      "top" : "StatefulPartitionedCall\/ssd_mobile_net_v2keras_feature_extractor\/functional_1\/block_16_depthwise_relu\/Relu6__relu6_neg__",
      "type" : "activation",
      "name" : "StatefulPartitionedCall\/ssd_mobile_net_v2keras_feature_extractor\/functional_1\/block_16_depthwise_relu\/Relu6__relu6_neg__",
      "beta" : 0
    },
    {
      "bottom" : "StatefulPartitionedCall\/ssd_mobile_net_v2keras_feature_extractor\/functional_1\/block_16_depthwise_relu\/Relu6__relu6_neg__",
      "alpha" : -6,
      "operation" : 25,
      "weights" : {

      },
      "fused_relu" : 0,
      "debug_info" : "StatefulPartitionedCall\/ssd_mobile_net_v2keras_feature_extractor\/functional_1\/block_16_depthwise_relu\/Relu6__relu6_threshold6__",
      "top" : "StatefulPartitionedCall\/ssd_mobile_net_v2keras_feature_extractor\/functional_1\/block_16_depthwise_relu\/Relu6__relu6_threshold6__",
      "type" : "elementwise",
      "name" : "StatefulPartitionedCall\/ssd_mobile_net_v2keras_feature_extractor\/functional_1\/block_16_depthwise_relu\/Relu6__relu6_threshold6__",
      "beta" : 0
    },
    {
      "alpha" : -1,
      "bottom" : "StatefulPartitionedCall\/ssd_mobile_net_v2keras_feature_extractor\/functional_1\/block_16_depthwise_relu\/Relu6__relu6_threshold6__",
      "weights" : {

      },
      "mode" : 6,
      "debug_info" : "StatefulPartitionedCall\/ssd_mobile_net_v2keras_feature_extractor\/functional_1\/block_16_depthwise_relu\/Relu6",
      "top" : "StatefulPartitionedCall\/ssd_mobile_net_v2keras_feature_extractor\/functional_1\/block_16_depthwise_relu\/Relu6",
      "type" : "activation",
      "name" : "StatefulPartitionedCall\/ssd_mobile_net_v2keras_feature_extractor\/functional_1\/block_16_depthwise_relu\/Relu6",
      "beta" : 0
    },
    {
      "pad_r" : 0,
      "fused_relu" : 0,
      "fused_tanh" : 0,
      "debug_info" : "StatefulPartitionedCall\/ssd_mobile_net_v2keras_feature_extractor\/functional_1\/block_16_project_BN\/FusedBatchNormV3_nchw",
      "pad_fill_mode" : 0,
      "pad_b" : 0,
      "pad_l" : 0,
      "top" : "StatefulPartitionedCall\/ssd_mobile_net_v2keras_feature_extractor\/functional_1\/block_16_project_BN\/FusedBatchNormV3_nchw",
      "blob_weights" : 213,
      "K" : 960,
      "blob_biases" : 211,
      "name" : "StatefulPartitionedCall\/ssd_mobile_net_v2keras_feature_extractor\/functional_1\/block_16_project_BN\/FusedBatchNormV3_nchw",
      "has_batch_norm" : 0,
      "type" : "convolution",
      "n_groups" : 1,
      "pad_t" : 0,
      "has_biases" : 1,
      "C" : 320,
      "bottom" : "StatefulPartitionedCall\/ssd_mobile_net_v2keras_feature_extractor\/functional_1\/block_16_depthwise_relu\/Relu6",
      "weights" : {

      },
      "Nx" : 1,
      "pad_mode" : 1,
      "pad_value" : 0,
      "Ny" : 1,
      "n_parallel" : 1
    },
    {
      "pad_r" : 0,
      "fused_relu" : 1,
      "fused_tanh" : 0,
      "debug_info" : "StatefulPartitionedCall\/ssd_mobile_net_v2keras_feature_extractor\/functional_1\/Conv_1_bn\/FusedBatchNormV3_nchw",
      "pad_fill_mode" : 0,
      "pad_b" : 0,
      "pad_l" : 0,
      "top" : "StatefulPartitionedCall\/ssd_mobile_net_v2keras_feature_extractor\/functional_1\/out_relu\/Relu6__relu6_relu__",
      "blob_weights" : 217,
      "K" : 320,
      "blob_biases" : 215,
      "name" : "StatefulPartitionedCall\/ssd_mobile_net_v2keras_feature_extractor\/functional_1\/Conv_1_bn\/FusedBatchNormV3_nchw",
      "has_batch_norm" : 0,
      "type" : "convolution",
      "n_groups" : 1,
      "pad_t" : 0,
      "has_biases" : 1,
      "C" : 1280,
      "bottom" : "StatefulPartitionedCall\/ssd_mobile_net_v2keras_feature_extractor\/functional_1\/block_16_project_BN\/FusedBatchNormV3_nchw",
      "weights" : {

      },
      "Nx" : 1,
      "pad_mode" : 1,
      "pad_value" : 0,
      "Ny" : 1,
      "n_parallel" : 1
    },
    {
      "alpha" : -1,
      "bottom" : "StatefulPartitionedCall\/ssd_mobile_net_v2keras_feature_extractor\/functional_1\/out_relu\/Relu6__relu6_relu__",
      "weights" : {

      },
      "mode" : 6,
      "debug_info" : "StatefulPartitionedCall\/ssd_mobile_net_v2keras_feature_extractor\/functional_1\/out_relu\/Relu6__relu6_neg__",
      "top" : "StatefulPartitionedCall\/ssd_mobile_net_v2keras_feature_extractor\/functional_1\/out_relu\/Relu6__relu6_neg__",
      "type" : "activation",
      "name" : "StatefulPartitionedCall\/ssd_mobile_net_v2keras_feature_extractor\/functional_1\/out_relu\/Relu6__relu6_neg__",
      "beta" : 0
    },
    {
      "bottom" : "StatefulPartitionedCall\/ssd_mobile_net_v2keras_feature_extractor\/functional_1\/out_relu\/Relu6__relu6_neg__",
      "alpha" : -6,
      "operation" : 25,
      "weights" : {

      },
      "fused_relu" : 0,
      "debug_info" : "StatefulPartitionedCall\/ssd_mobile_net_v2keras_feature_extractor\/functional_1\/out_relu\/Relu6__relu6_threshold6__",
      "top" : "StatefulPartitionedCall\/ssd_mobile_net_v2keras_feature_extractor\/functional_1\/out_relu\/Relu6__relu6_threshold6__",
      "type" : "elementwise",
      "name" : "StatefulPartitionedCall\/ssd_mobile_net_v2keras_feature_extractor\/functional_1\/out_relu\/Relu6__relu6_threshold6__",
      "beta" : 0
    },
    {
      "alpha" : -1,
      "bottom" : "StatefulPartitionedCall\/ssd_mobile_net_v2keras_feature_extractor\/functional_1\/out_relu\/Relu6__relu6_threshold6__",
      "weights" : {

      },
      "mode" : 6,
      "debug_info" : "StatefulPartitionedCall\/ssd_mobile_net_v2keras_feature_extractor\/functional_1\/out_relu\/Relu6",
      "top" : "StatefulPartitionedCall\/ssd_mobile_net_v2keras_feature_extractor\/functional_1\/out_relu\/Relu6",
      "type" : "activation",
      "name" : "StatefulPartitionedCall\/ssd_mobile_net_v2keras_feature_extractor\/functional_1\/out_relu\/Relu6",
      "beta" : 0
    },
    {
      "pad_r" : 0,
      "fused_relu" : 0,
      "fused_tanh" : 0,
      "debug_info" : "conv_2",
      "pad_fill_mode" : 0,
      "pad_b" : 0,
      "pad_l" : 0,
      "top" : "conv_2",
      "blob_weights" : 221,
      "K" : 1280,
      "blob_biases" : 219,
      "name" : "conv_2",
      "has_batch_norm" : 0,
      "type" : "convolution",
      "n_groups" : 1,
      "pad_t" : 0,
      "has_biases" : 1,
      "C" : 24,
      "bottom" : "StatefulPartitionedCall\/ssd_mobile_net_v2keras_feature_extractor\/functional_1\/out_relu\/Relu6",
      "weights" : {

      },
      "Nx" : 1,
      "pad_mode" : 1,
      "pad_value" : 0,
      "Ny" : 1,
      "n_parallel" : 1
    },
    {
      "pad_r" : 0,
      "fused_relu" : 1,
      "fused_tanh" : 0,
      "debug_info" : "StatefulPartitionedCall\/ssd_mobile_net_v2keras_feature_extractor\/FeatureMaps\/layer_19_1_Conv2d_2_1x1_256_batchnorm\/FusedBatchNormV3_nchw",
      "pad_fill_mode" : 0,
      "pad_b" : 0,
      "pad_l" : 0,
      "top" : "StatefulPartitionedCall\/ssd_mobile_net_v2keras_feature_extractor\/FeatureMaps\/layer_19_1_Conv2d_2_1x1_256\/Relu6__relu6_relu__",
      "blob_weights" : 225,
      "K" : 1280,
      "blob_biases" : 223,
      "name" : "StatefulPartitionedCall\/ssd_mobile_net_v2keras_feature_extractor\/FeatureMaps\/layer_19_1_Conv2d_2_1x1_256_batchnorm\/FusedBatchNormV3_nchw",
      "has_batch_norm" : 0,
      "type" : "convolution",
      "n_groups" : 1,
      "pad_t" : 0,
      "has_biases" : 1,
      "C" : 256,
      "bottom" : "StatefulPartitionedCall\/ssd_mobile_net_v2keras_feature_extractor\/functional_1\/out_relu\/Relu6",
      "weights" : {

      },
      "Nx" : 1,
      "pad_mode" : 1,
      "pad_value" : 0,
      "Ny" : 1,
      "n_parallel" : 1
    },
    {
      "pad_r" : 0,
      "fused_relu" : 0,
      "fused_tanh" : 0,
      "debug_info" : "conv_3",
      "pad_fill_mode" : 0,
      "pad_b" : 0,
      "pad_l" : 0,
      "top" : "conv_3",
      "blob_weights" : 229,
      "K" : 1280,
      "blob_biases" : 227,
      "name" : "conv_3",
      "has_batch_norm" : 0,
      "type" : "convolution",
      "n_groups" : 1,
      "pad_t" : 0,
      "has_biases" : 1,
      "C" : 546,
      "bottom" : "StatefulPartitionedCall\/ssd_mobile_net_v2keras_feature_extractor\/functional_1\/out_relu\/Relu6",
      "weights" : {

      },
      "Nx" : 1,
      "pad_mode" : 1,
      "pad_value" : 0,
      "Ny" : 1,
      "n_parallel" : 1
    },
    {
      "axis_h" : 0,
      "axis_w" : 2,
      "bottom" : "conv_2",
      "axis_k" : 1,
      "axis_n" : 3,
      "axis_seq" : 4,
      "weights" : {

      },
      "debug_info" : "transpose_216",
      "top" : "transpose_216",
      "type" : "transpose",
      "name" : "transpose_216"
    },
    {
      "name" : "StatefulPartitionedCall\/BoxPredictor\/ConvolutionalBoxHead_1\/Reshape",
      "rank_preserving_mode" : true,
      "dst_w" : 4,
      "version" : 1,
      "dst_n" : 1,
      "dst_nd_rank" : 4,
      "weights" : {

      },
      "type" : "reshape",
      "dst_h" : 1,
      "mode" : 0,
      "bottom" : "transpose_216",
      "debug_info" : "StatefulPartitionedCall\/BoxPredictor\/ConvolutionalBoxHead_1\/Reshape",
      "dst_seq" : 0,
      "dst_k" : -1,
      "top" : "StatefulPartitionedCall\/BoxPredictor\/ConvolutionalBoxHead_1\/Reshape"
    },
    {
      "alpha" : -1,
      "bottom" : "StatefulPartitionedCall\/ssd_mobile_net_v2keras_feature_extractor\/FeatureMaps\/layer_19_1_Conv2d_2_1x1_256\/Relu6__relu6_relu__",
      "weights" : {

      },
      "mode" : 6,
      "debug_info" : "StatefulPartitionedCall\/ssd_mobile_net_v2keras_feature_extractor\/FeatureMaps\/layer_19_1_Conv2d_2_1x1_256\/Relu6__relu6_neg__",
      "top" : "StatefulPartitionedCall\/ssd_mobile_net_v2keras_feature_extractor\/FeatureMaps\/layer_19_1_Conv2d_2_1x1_256\/Relu6__relu6_neg__",
      "type" : "activation",
      "name" : "StatefulPartitionedCall\/ssd_mobile_net_v2keras_feature_extractor\/FeatureMaps\/layer_19_1_Conv2d_2_1x1_256\/Relu6__relu6_neg__",
      "beta" : 0
    },
    {
      "bottom" : "StatefulPartitionedCall\/ssd_mobile_net_v2keras_feature_extractor\/FeatureMaps\/layer_19_1_Conv2d_2_1x1_256\/Relu6__relu6_neg__",
      "alpha" : -6,
      "operation" : 25,
      "weights" : {

      },
      "fused_relu" : 0,
      "debug_info" : "StatefulPartitionedCall\/ssd_mobile_net_v2keras_feature_extractor\/FeatureMaps\/layer_19_1_Conv2d_2_1x1_256\/Relu6__relu6_threshold6__",
      "top" : "StatefulPartitionedCall\/ssd_mobile_net_v2keras_feature_extractor\/FeatureMaps\/layer_19_1_Conv2d_2_1x1_256\/Relu6__relu6_threshold6__",
      "type" : "elementwise",
      "name" : "StatefulPartitionedCall\/ssd_mobile_net_v2keras_feature_extractor\/FeatureMaps\/layer_19_1_Conv2d_2_1x1_256\/Relu6__relu6_threshold6__",
      "beta" : 0
    },
    {
      "alpha" : -1,
      "bottom" : "StatefulPartitionedCall\/ssd_mobile_net_v2keras_feature_extractor\/FeatureMaps\/layer_19_1_Conv2d_2_1x1_256\/Relu6__relu6_threshold6__",
      "weights" : {

      },
      "mode" : 6,
      "debug_info" : "StatefulPartitionedCall\/ssd_mobile_net_v2keras_feature_extractor\/FeatureMaps\/layer_19_1_Conv2d_2_1x1_256\/Relu6",
      "top" : "StatefulPartitionedCall\/ssd_mobile_net_v2keras_feature_extractor\/FeatureMaps\/layer_19_1_Conv2d_2_1x1_256\/Relu6",
      "type" : "activation",
      "name" : "StatefulPartitionedCall\/ssd_mobile_net_v2keras_feature_extractor\/FeatureMaps\/layer_19_1_Conv2d_2_1x1_256\/Relu6",
      "beta" : 0
    },
    {
      "axis_h" : 0,
      "axis_w" : 2,
      "bottom" : "conv_3",
      "axis_k" : 1,
      "axis_n" : 3,
      "axis_seq" : 4,
      "weights" : {

      },
      "debug_info" : "transpose_215",
      "top" : "transpose_215",
      "type" : "transpose",
      "name" : "transpose_215"
    },
    {
      "name" : "StatefulPartitionedCall\/BoxPredictor\/ConvolutionalClassHead_1\/Reshape",
      "weights" : {

      },
      "dst_w" : 91,
      "version" : 1,
      "dst_n" : 1,
      "dst_nd_rank" : 3,
      "type" : "reshape",
      "dst_h" : -1,
      "mode" : 0,
      "dynamic_shape" : false,
      "bottom" : "transpose_215",
      "debug_info" : "StatefulPartitionedCall\/BoxPredictor\/ConvolutionalClassHead_1\/Reshape",
      "dst_seq" : 1,
      "dst_k" : 1,
      "top" : "StatefulPartitionedCall\/BoxPredictor\/ConvolutionalClassHead_1\/Reshape"
    },
    {
      "pad_r" : 0,
      "fused_relu" : 1,
      "fused_tanh" : 0,
      "debug_info" : "StatefulPartitionedCall\/ssd_mobile_net_v2keras_feature_extractor\/FeatureMaps\/layer_19_2_Conv2d_2_3x3_s2_512_batchnorm\/FusedBatchNormV3_nchw",
      "pad_fill_mode" : 0,
      "pad_b" : 0,
      "pad_l" : 0,
      "top" : "StatefulPartitionedCall\/ssd_mobile_net_v2keras_feature_extractor\/FeatureMaps\/layer_19_2_Conv2d_2_3x3_s2_512\/Relu6__relu6_relu__",
      "blob_weights" : 233,
      "K" : 256,
      "blob_biases" : 231,
      "stride_x" : 2,
      "name" : "StatefulPartitionedCall\/ssd_mobile_net_v2keras_feature_extractor\/FeatureMaps\/layer_19_2_Conv2d_2_3x3_s2_512_batchnorm\/FusedBatchNormV3_nchw",
      "has_batch_norm" : 0,
      "type" : "convolution",
      "n_groups" : 1,
      "pad_t" : 0,
      "stride_y" : 2,
      "has_biases" : 1,
      "C" : 512,
      "bottom" : "StatefulPartitionedCall\/ssd_mobile_net_v2keras_feature_extractor\/FeatureMaps\/layer_19_1_Conv2d_2_1x1_256\/Relu6",
      "weights" : {

      },
      "Nx" : 3,
      "pad_mode" : 1,
      "pad_value" : 0,
      "Ny" : 3,
      "n_parallel" : 1
    },
    {
      "alpha" : -1,
…
      "type" : "activation",
      "name" : "StatefulPartitionedCall\/ssd_mobile_net_v2keras_feature_extractor\/FeatureMaps\/layer_19_1_Conv2d_3_1x1_128\/Relu6",
      "beta" : 0
    },
    {
      "axis_h" : 0,
      "axis_w" : 2,
      "bottom" : "conv_5",
      "axis_k" : 1,
      "axis_n" : 3,
      "axis_seq" : 4,
      "weights" : {

      },
      "debug_info" : "transpose_213",
      "top" : "transpose_213",
      "type" : "transpose",
      "name" : "transpose_213"
    },
    {
      "name" : "StatefulPartitionedCall\/BoxPredictor\/ConvolutionalClassHead_2\/Reshape",
      "weights" : {

      },
      "dst_w" : 91,
      "version" : 1,
      "dst_n" : 1,
      "dst_nd_rank" : 3,
      "type" : "reshape",
      "dst_h" : -1,
      "mode" : 0,
      "dynamic_shape" : false,
      "bottom" : "transpose_213",
      "debug_info" : "StatefulPartitionedCall\/BoxPredictor\/ConvolutionalClassHead_2\/Reshape",
      "dst_seq" : 1,
      "dst_k" : 1,
      "top" : "StatefulPartitionedCall\/BoxPredictor\/ConvolutionalClassHead_2\/Reshape"
    },
    {
      "pad_r" : 0,
      "fused_relu" : 1,
      "fused_tanh" : 0,
      "debug_info" : "StatefulPartitionedCall\/ssd_mobile_net_v2keras_feature_extractor\/FeatureMaps\/layer_19_2_Conv2d_3_3x3_s2_256_batchnorm\/FusedBatchNormV3_nchw",
      "pad_fill_mode" : 0,
      "pad_b" : 0,
      "pad_l" : 0,
      "top" : "StatefulPartitionedCall\/ssd_mobile_net_v2keras_feature_extractor\/FeatureMaps\/layer_19_2_Conv2d_3_3x3_s2_256\/Relu6__relu6_relu__",
      "blob_weights" : 249,
      "K" : 128,
      "blob_biases" : 247,
      "stride_x" : 2,
      "name" : "StatefulPartitionedCall\/ssd_mobile_net_v2keras_feature_extractor\/FeatureMaps\/layer_19_2_Conv2d_3_3x3_s2_256_batchnorm\/FusedBatchNormV3_nchw",
      "has_batch_norm" : 0,
      "type" : "convolution",
      "n_groups" : 1,
      "pad_t" : 0,
      "stride_y" : 2,
      "has_biases" : 1,
      "C" : 256,
      "bottom" : "StatefulPartitionedCall\/ssd_mobile_net_v2keras_feature_extractor\/FeatureMaps\/layer_19_1_Conv2d_3_1x1_128\/Relu6",
      "weights" : {

      },
      "Nx" : 3,
      "pad_mode" : 1,
      "pad_value" : 0,
      "Ny" : 3,
      "n_parallel" : 1
    },
    {
      "alpha" : -1,
      "bottom" : "StatefulPartitionedCall\/ssd_mobile_net_v2keras_feature_extractor\/FeatureMaps\/layer_19_2_Conv2d_3_3x3_s2_256\/Relu6__relu6_relu__",
      "weights" : {

      },
      "mode" : 6,
      "debug_info" : "StatefulPartitionedCall\/ssd_mobile_net_v2keras_feature_extractor\/FeatureMaps\/layer_19_2_Conv2d_3_3x3_s2_256\/Relu6__relu6_neg__",
      "top" : "StatefulPartitionedCall\/ssd_mobile_net_v2keras_feature_extractor\/FeatureMaps\/layer_19_2_Conv2d_3_3x3_s2_256\/Relu6__relu6_neg__",
      "type" : "activation",
      "name" : "StatefulPartitionedCall\/ssd_mobile_net_v2keras_feature_extractor\/FeatureMaps\/layer_19_2_Conv2d_3_3x3_s2_256\/Relu6__relu6_neg__",
      "beta" : 0
    },
    {
      "bottom" : "StatefulPartitionedCall\/ssd_mobile_net_v2keras_feature_extractor\/FeatureMaps\/layer_19_2_Conv2d_3_3x3_s2_256\/Relu6__relu6_neg__",
      "alpha" : -6,
      "operation" : 25,
      "weights" : {

      },
      "fused_relu" : 0,
      "debug_info" : "StatefulPartitionedCall\/ssd_mobile_net_v2keras_feature_extractor\/FeatureMaps\/layer_19_2_Conv2d_3_3x3_s2_256\/Relu6__relu6_threshold6__",
      "top" : "StatefulPartitionedCall\/ssd_mobile_net_v2keras_feature_extractor\/FeatureMaps\/layer_19_2_Conv2d_3_3x3_s2_256\/Relu6__relu6_threshold6__",
      "type" : "elementwise",
      "name" : "StatefulPartitionedCall\/ssd_mobile_net_v2keras_feature_extractor\/FeatureMaps\/layer_19_2_Conv2d_3_3x3_s2_256\/Relu6__relu6_threshold6__",
      "beta" : 0
    },
    {
      "alpha" : -1,
      "bottom" : "StatefulPartitionedCall\/ssd_mobile_net_v2keras_feature_extractor\/FeatureMaps\/layer_19_2_Conv2d_3_3x3_s2_256\/Relu6__relu6_threshold6__",
      "weights" : {

      },
      "mode" : 6,
      "debug_info" : "StatefulPartitionedCall\/ssd_mobile_net_v2keras_feature_extractor\/FeatureMaps\/layer_19_2_Conv2d_3_3x3_s2_256\/Relu6",
      "top" : "StatefulPartitionedCall\/ssd_mobile_net_v2keras_feature_extractor\/FeatureMaps\/layer_19_2_Conv2d_3_3x3_s2_256\/Relu6",
      "type" : "activation",
      "name" : "StatefulPartitionedCall\/ssd_mobile_net_v2keras_feature_extractor\/FeatureMaps\/layer_19_2_Conv2d_3_3x3_s2_256\/Relu6",
      "beta" : 0
    },
    {
      "pad_r" : 0,
      "fused_relu" : 0,
      "fused_tanh" : 0,
      "debug_info" : "conv_6",
      "pad_fill_mode" : 0,
      "pad_b" : 0,
      "pad_l" : 0,
      "top" : "conv_6",
      "blob_weights" : 253,
      "K" : 256,
      "blob_biases" : 251,
      "name" : "conv_6",
      "has_batch_norm" : 0,
      "type" : "convolution",
      "n_groups" : 1,
      "pad_t" : 0,
      "has_biases" : 1,
      "C" : 24,
      "bottom" : "StatefulPartitionedCall\/ssd_mobile_net_v2keras_feature_extractor\/FeatureMaps\/layer_19_2_Conv2d_3_3x3_s2_256\/Relu6",
      "weights" : {

      },
      "Nx" : 1,
      "pad_mode" : 1,
      "pad_value" : 0,
      "Ny" : 1,
      "n_parallel" : 1
    },
    {
      "pad_r" : 0,
      "fused_relu" : 1,
      "fused_tanh" : 0,
      "debug_info" : "StatefulPartitionedCall\/ssd_mobile_net_v2keras_feature_extractor\/FeatureMaps\/layer_19_1_Conv2d_4_1x1_128_batchnorm\/FusedBatchNormV3_nchw",
      "pad_fill_mode" : 0,
      "pad_b" : 0,
      "pad_l" : 0,
      "top" : "StatefulPartitionedCall\/ssd_mobile_net_v2keras_feature_extractor\/FeatureMaps\/layer_19_1_Conv2d_4_1x1_128\/Relu6__relu6_relu__",
      "blob_weights" : 257,
      "K" : 256,
      "blob_biases" : 255,
      "name" : "StatefulPartitionedCall\/ssd_mobile_net_v2keras_feature_extractor\/FeatureMaps\/layer_19_1_Conv2d_4_1x1_128_batchnorm\/FusedBatchNormV3_nchw",
      "has_batch_norm" : 0,
      "type" : "convolution",
      "n_groups" : 1,
      "pad_t" : 0,
      "has_biases" : 1,
      "C" : 128,
      "bottom" : "StatefulPartitionedCall\/ssd_mobile_net_v2keras_feature_extractor\/FeatureMaps\/layer_19_2_Conv2d_3_3x3_s2_256\/Relu6",
      "weights" : {

      },
      "Nx" : 1,
      "pad_mode" : 1,
      "pad_value" : 0,
      "Ny" : 1,
      "n_parallel" : 1
    },
    {
      "pad_r" : 0,
      "fused_relu" : 0,
      "fused_tanh" : 0,
      "debug_info" : "conv_7",
      "pad_fill_mode" : 0,
      "pad_b" : 0,
      "pad_l" : 0,
      "top" : "conv_7",
      "blob_weights" : 261,
      "K" : 256,
      "blob_biases" : 259,
      "name" : "conv_7",
      "has_batch_norm" : 0,
      "type" : "convolution",
      "n_groups" : 1,
      "pad_t" : 0,
      "has_biases" : 1,
      "C" : 546,
      "bottom" : "StatefulPartitionedCall\/ssd_mobile_net_v2keras_feature_extractor\/FeatureMaps\/layer_19_2_Conv2d_3_3x3_s2_256\/Relu6",
      "weights" : {

      },
      "Nx" : 1,
      "pad_mode" : 1,
      "pad_value" : 0,
      "Ny" : 1,
      "n_parallel" : 1
    },
    {
      "axis_h" : 0,
      "axis_w" : 2,
      "bottom" : "conv_6",
      "axis_k" : 1,
      "axis_n" : 3,
      "axis_seq" : 4,
      "weights" : {

      },
      "debug_info" : "transpose_212",
      "top" : "transpose_212",
      "type" : "transpose",
      "name" : "transpose_212"
    },
    {
      "name" : "StatefulPartitionedCall\/BoxPredictor\/ConvolutionalBoxHead_3\/Reshape",
      "rank_preserving_mode" : true,
      "dst_w" : 4,
      "version" : 1,
      "dst_n" : 1,
      "dst_nd_rank" : 4,
      "weights" : {

      },
      "type" : "reshape",
      "dst_h" : 1,
      "mode" : 0,
      "bottom" : "transpose_212",
      "debug_info" : "StatefulPartitionedCall\/BoxPredictor\/ConvolutionalBoxHead_3\/Reshape",
      "dst_seq" : 0,
      "dst_k" : -1,
      "top" : "StatefulPartitionedCall\/BoxPredictor\/ConvolutionalBoxHead_3\/Reshape"
    },
    {
      "alpha" : -1,
      "bottom" : "StatefulPartitionedCall\/ssd_mobile_net_v2keras_feature_extractor\/FeatureMaps\/layer_19_1_Conv2d_4_1x1_128\/Relu6__relu6_relu__",
      "weights" : {

      },
      "mode" : 6,
      "debug_info" : "StatefulPartitionedCall\/ssd_mobile_net_v2keras_feature_extractor\/FeatureMaps\/layer_19_1_Conv2d_4_1x1_128\/Relu6__relu6_neg__",
      "top" : "StatefulPartitionedCall\/ssd_mobile_net_v2keras_feature_extractor\/FeatureMaps\/layer_19_1_Conv2d_4_1x1_128\/Relu6__relu6_neg__",
      "type" : "activation",
      "name" : "StatefulPartitionedCall\/ssd_mobile_net_v2keras_feature_extractor\/FeatureMaps\/layer_19_1_Conv2d_4_1x1_128\/Relu6__relu6_neg__",
      "beta" : 0
    },
    {
      "bottom" : "StatefulPartitionedCall\/ssd_mobile_net_v2keras_feature_extractor\/FeatureMaps\/layer_19_1_Conv2d_4_1x1_128\/Relu6__relu6_neg__",
      "alpha" : -6,
      "operation" : 25,
      "weights" : {

      },
      "fused_relu" : 0,
      "debug_info" : "StatefulPartitionedCall\/ssd_mobile_net_v2keras_feature_extractor\/FeatureMaps\/layer_19_1_Conv2d_4_1x1_128\/Relu6__relu6_threshold6__",
      "top" : "StatefulPartitionedCall\/ssd_mobile_net_v2keras_feature_extractor\/FeatureMaps\/layer_19_1_Conv2d_4_1x1_128\/Relu6__relu6_threshold6__",
      "type" : "elementwise",
      "name" : "StatefulPartitionedCall\/ssd_mobile_net_v2keras_feature_extractor\/FeatureMaps\/layer_19_1_Conv2d_4_1x1_128\/Relu6__relu6_threshold6__",
      "beta" : 0
    },
    {
      "alpha" : -1,
      "bottom" : "StatefulPartitionedCall\/ssd_mobile_net_v2keras_feature_extractor\/FeatureMaps\/layer_19_1_Conv2d_4_1x1_128\/Relu6__relu6_threshold6__",
      "weights" : {

      },
      "mode" : 6,
      "debug_info" : "StatefulPartitionedCall\/ssd_mobile_net_v2keras_feature_extractor\/FeatureMaps\/layer_19_1_Conv2d_4_1x1_128\/Relu6",
      "top" : "StatefulPartitionedCall\/ssd_mobile_net_v2keras_feature_extractor\/FeatureMaps\/layer_19_1_Conv2d_4_1x1_128\/Relu6",
      "type" : "activation",
      "name" : "StatefulPartitionedCall\/ssd_mobile_net_v2keras_feature_extractor\/FeatureMaps\/layer_19_1_Conv2d_4_1x1_128\/Relu6",
      "beta" : 0
    },
    {
      "axis_h" : 0,
      "axis_w" : 2,
      "bottom" : "conv_7",
      "axis_k" : 1,
      "axis_n" : 3,
      "axis_seq" : 4,
      "weights" : {

      },
      "debug_info" : "transpose_211",
      "top" : "transpose_211",
      "type" : "transpose",
      "name" : "transpose_211"
    },
    {
      "name" : "StatefulPartitionedCall\/BoxPredictor\/ConvolutionalClassHead_3\/Reshape",
      "weights" : {

      },
      "dst_w" : 91,
      "version" : 1,
      "dst_n" : 1,
      "dst_nd_rank" : 3,
      "type" : "reshape",
      "dst_h" : -1,
      "mode" : 0,
      "dynamic_shape" : false,
      "bottom" : "transpose_211",
      "debug_info" : "StatefulPartitionedCall\/BoxPredictor\/ConvolutionalClassHead_3\/Reshape",
      "dst_seq" : 1,
      "dst_k" : 1,
      "top" : "StatefulPartitionedCall\/BoxPredictor\/ConvolutionalClassHead_3\/Reshape"
    },
    {
      "pad_r" : 0,
      "fused_relu" : 1,
      "fused_tanh" : 0,
      "debug_info" : "StatefulPartitionedCall\/ssd_mobile_net_v2keras_feature_extractor\/FeatureMaps\/layer_19_2_Conv2d_4_3x3_s2_256_batchnorm\/FusedBatchNormV3_nchw",
      "pad_fill_mode" : 0,
      "pad_b" : 0,
      "pad_l" : 0,
      "top" : "StatefulPartitionedCall\/ssd_mobile_net_v2keras_feature_extractor\/FeatureMaps\/layer_19_2_Conv2d_4_3x3_s2_256\/Relu6__relu6_relu__",
      "blob_weights" : 265,
      "K" : 128,
      "blob_biases" : 263,
      "stride_x" : 2,
      "name" : "StatefulPartitionedCall\/ssd_mobile_net_v2keras_feature_extractor\/FeatureMaps\/layer_19_2_Conv2d_4_3x3_s2_256_batchnorm\/FusedBatchNormV3_nchw",
      "has_batch_norm" : 0,
      "type" : "convolution",
      "n_groups" : 1,
      "pad_t" : 0,
      "stride_y" : 2,
      "has_biases" : 1,
      "C" : 256,
      "bottom" : "StatefulPartitionedCall\/ssd_mobile_net_v2keras_feature_extractor\/FeatureMaps\/layer_19_1_Conv2d_4_1x1_128\/Relu6",
      "weights" : {

      },
      "Nx" : 3,
      "pad_mode" : 1,
      "pad_value" : 0,
      "Ny" : 3,
      "n_parallel" : 1
    },
    {
      "alpha" : -1,
      "bottom" : "StatefulPartitionedCall\/ssd_mobile_net_v2keras_feature_extractor\/FeatureMaps\/layer_19_2_Conv2d_4_3x3_s2_256\/Relu6__relu6_relu__",
      "weights" : {

      },
      "mode" : 6,
      "debug_info" : "StatefulPartitionedCall\/ssd_mobile_net_v2keras_feature_extractor\/FeatureMaps\/layer_19_2_Conv2d_4_3x3_s2_256\/Relu6__relu6_neg__",
      "top" : "StatefulPartitionedCall\/ssd_mobile_net_v2keras_feature_extractor\/FeatureMaps\/layer_19_2_Conv2d_4_3x3_s2_256\/Relu6__relu6_neg__",
      "type" : "activation",
      "name" : "StatefulPartitionedCall\/ssd_mobile_net_v2keras_feature_extractor\/FeatureMaps\/layer_19_2_Conv2d_4_3x3_s2_256\/Relu6__relu6_neg__",
      "beta" : 0
    },
    {
      "bottom" : "StatefulPartitionedCall\/ssd_mobile_net_v2keras_feature_extractor\/FeatureMaps\/layer_19_2_Conv2d_4_3x3_s2_256\/Relu6__relu6_neg__",
      "alpha" : -6,
      "operation" : 25,
      "weights" : {

      },
      "fused_relu" : 0,
      "debug_info" : "StatefulPartitionedCall\/ssd_mobile_net_v2keras_feature_extractor\/FeatureMaps\/layer_19_2_Conv2d_4_3x3_s2_256\/Relu6__relu6_threshold6__",
      "top" : "StatefulPartitionedCall\/ssd_mobile_net_v2keras_feature_extractor\/FeatureMaps\/layer_19_2_Conv2d_4_3x3_s2_256\/Relu6__relu6_threshold6__",
      "type" : "elementwise",
      "name" : "StatefulPartitionedCall\/ssd_mobile_net_v2keras_feature_extractor\/FeatureMaps\/layer_19_2_Conv2d_4_3x3_s2_256\/Relu6__relu6_threshold6__",
      "beta" : 0
    },
    {
      "alpha" : -1,
      "bottom" : "StatefulPartitionedCall\/ssd_mobile_net_v2keras_feature_extractor\/FeatureMaps\/layer_19_2_Conv2d_4_3x3_s2_256\/Relu6__relu6_threshold6__",
      "weights" : {

      },
      "mode" : 6,
      "debug_info" : "StatefulPartitionedCall\/ssd_mobile_net_v2keras_feature_extractor\/FeatureMaps\/layer_19_2_Conv2d_4_3x3_s2_256\/Relu6",
      "top" : "StatefulPartitionedCall\/ssd_mobile_net_v2keras_feature_extractor\/FeatureMaps\/layer_19_2_Conv2d_4_3x3_s2_256\/Relu6",
      "type" : "activation",
      "name" : "StatefulPartitionedCall\/ssd_mobile_net_v2keras_feature_extractor\/FeatureMaps\/layer_19_2_Conv2d_4_3x3_s2_256\/Relu6",
      "beta" : 0
    },
    {
      "pad_r" : 0,
      "fused_relu" : 0,
      "fused_tanh" : 0,
      "debug_info" : "conv_8",
      "pad_fill_mode" : 0,
      "pad_b" : 0,
      "pad_l" : 0,
      "top" : "conv_8",
      "blob_weights" : 269,
      "K" : 256,
      "blob_biases" : 267,
      "name" : "conv_8",
      "has_batch_norm" : 0,
      "type" : "convolution",
      "n_groups" : 1,
      "pad_t" : 0,
      "has_biases" : 1,
      "C" : 24,
      "bottom" : "StatefulPartitionedCall\/ssd_mobile_net_v2keras_feature_extractor\/FeatureMaps\/layer_19_2_Conv2d_4_3x3_s2_256\/Relu6",
      "weights" : {

      },
      "Nx" : 1,
      "pad_mode" : 1,
      "pad_value" : 0,
      "Ny" : 1,
      "n_parallel" : 1
    },
    {
      "pad_r" : 0,
      "fused_relu" : 1,
      "fused_tanh" : 0,
      "debug_info" : "StatefulPartitionedCall\/ssd_mobile_net_v2keras_feature_extractor\/FeatureMaps\/layer_19_1_Conv2d_5_1x1_64_batchnorm\/FusedBatchNormV3_nchw",
      "pad_fill_mode" : 0,
      "pad_b" : 0,
      "pad_l" : 0,
      "top" : "StatefulPartitionedCall\/ssd_mobile_net_v2keras_feature_extractor\/FeatureMaps\/layer_19_1_Conv2d_5_1x1_64\/Relu6__relu6_relu__",
      "blob_weights" : 273,
      "K" : 256,
      "blob_biases" : 271,
      "name" : "StatefulPartitionedCall\/ssd_mobile_net_v2keras_feature_extractor\/FeatureMaps\/layer_19_1_Conv2d_5_1x1_64_batchnorm\/FusedBatchNormV3_nchw",
      "has_batch_norm" : 0,
      "type" : "convolution",
      "n_groups" : 1,
      "pad_t" : 0,
      "has_biases" : 1,
      "C" : 64,
      "bottom" : "StatefulPartitionedCall\/ssd_mobile_net_v2keras_feature_extractor\/FeatureMaps\/layer_19_2_Conv2d_4_3x3_s2_256\/Relu6",
      "weights" : {

      },
      "Nx" : 1,
      "pad_mode" : 1,
      "pad_value" : 0,
      "Ny" : 1,
      "n_parallel" : 1
    },
    {
      "pad_r" : 0,
      "fused_relu" : 0,
      "fused_tanh" : 0,
      "debug_info" : "conv_9",
      "pad_fill_mode" : 0,
      "pad_b" : 0,
      "pad_l" : 0,
      "top" : "conv_9",
      "blob_weights" : 277,
      "K" : 256,
      "blob_biases" : 275,
      "name" : "conv_9",
      "has_batch_norm" : 0,
      "type" : "convolution",
      "n_groups" : 1,
      "pad_t" : 0,
      "has_biases" : 1,
      "C" : 546,
      "bottom" : "StatefulPartitionedCall\/ssd_mobile_net_v2keras_feature_extractor\/FeatureMaps\/layer_19_2_Conv2d_4_3x3_s2_256\/Relu6",
      "weights" : {

      },
      "Nx" : 1,
      "pad_mode" : 1,
      "pad_value" : 0,
      "Ny" : 1,
      "n_parallel" : 1
    },
    {
      "axis_h" : 0,
      "axis_w" : 2,
      "bottom" : "conv_8",
      "axis_k" : 1,
      "axis_n" : 3,
      "axis_seq" : 4,
      "weights" : {

      },
      "debug_info" : "transpose_210",
      "top" : "transpose_210",
      "type" : "transpose",
      "name" : "transpose_210"
    },
    {
      "name" : "StatefulPartitionedCall\/BoxPredictor\/ConvolutionalBoxHead_4\/Reshape",
      "rank_preserving_mode" : true,
      "dst_w" : 4,
      "version" : 1,
      "dst_n" : 1,
      "dst_nd_rank" : 4,
      "weights" : {

      },
      "type" : "reshape",
      "dst_h" : 1,
      "mode" : 0,
      "bottom" : "transpose_210",
      "debug_info" : "StatefulPartitionedCall\/BoxPredictor\/ConvolutionalBoxHead_4\/Reshape",
      "dst_seq" : 0,
      "dst_k" : -1,
      "top" : "StatefulPartitionedCall\/BoxPredictor\/ConvolutionalBoxHead_4\/Reshape"
    },
    {
      "alpha" : -1,
      "bottom" : "StatefulPartitionedCall\/ssd_mobile_net_v2keras_feature_extractor\/FeatureMaps\/layer_19_1_Conv2d_5_1x1_64\/Relu6__relu6_relu__",
      "weights" : {

      },
      "mode" : 6,
      "debug_info" : "StatefulPartitionedCall\/ssd_mobile_net_v2keras_feature_extractor\/FeatureMaps\/layer_19_1_Conv2d_5_1x1_64\/Relu6__relu6_neg__",
      "top" : "StatefulPartitionedCall\/ssd_mobile_net_v2keras_feature_extractor\/FeatureMaps\/layer_19_1_Conv2d_5_1x1_64\/Relu6__relu6_neg__",
      "type" : "activation",
      "name" : "StatefulPartitionedCall\/ssd_mobile_net_v2keras_feature_extractor\/FeatureMaps\/layer_19_1_Conv2d_5_1x1_64\/Relu6__relu6_neg__",
      "beta" : 0
    },
    {
      "bottom" : "StatefulPartitionedCall\/ssd_mobile_net_v2keras_feature_extractor\/FeatureMaps\/layer_19_1_Conv2d_5_1x1_64\/Relu6__relu6_neg__",
      "alpha" : -6,
      "operation" : 25,
      "weights" : {

      },
      "fused_relu" : 0,
      "debug_info" : "StatefulPartitionedCall\/ssd_mobile_net_v2keras_feature_extractor\/FeatureMaps\/layer_19_1_Conv2d_5_1x1_64\/Relu6__relu6_threshold6__",
      "top" : "StatefulPartitionedCall\/ssd_mobile_net_v2keras_feature_extractor\/FeatureMaps\/layer_19_1_Conv2d_5_1x1_64\/Relu6__relu6_threshold6__",
      "type" : "elementwise",
      "name" : "StatefulPartitionedCall\/ssd_mobile_net_v2keras_feature_extractor\/FeatureMaps\/layer_19_1_Conv2d_5_1x1_64\/Relu6__relu6_threshold6__",
      "beta" : 0
    },
    {
      "alpha" : -1,
      "bottom" : "StatefulPartitionedCall\/ssd_mobile_net_v2keras_feature_extractor\/FeatureMaps\/layer_19_1_Conv2d_5_1x1_64\/Relu6__relu6_threshold6__",
      "weights" : {

      },
      "mode" : 6,
      "debug_info" : "StatefulPartitionedCall\/ssd_mobile_net_v2keras_feature_extractor\/FeatureMaps\/layer_19_1_Conv2d_5_1x1_64\/Relu6",
      "top" : "StatefulPartitionedCall\/ssd_mobile_net_v2keras_feature_extractor\/FeatureMaps\/layer_19_1_Conv2d_5_1x1_64\/Relu6",
      "type" : "activation",
      "name" : "StatefulPartitionedCall\/ssd_mobile_net_v2keras_feature_extractor\/FeatureMaps\/layer_19_1_Conv2d_5_1x1_64\/Relu6",
      "beta" : 0
    },
    {
      "axis_h" : 0,
      "axis_w" : 2,
      "bottom" : "conv_9",
      "axis_k" : 1,
      "axis_n" : 3,
      "axis_seq" : 4,
      "weights" : {

      },
      "debug_info" : "transpose_209",
      "top" : "transpose_209",
      "type" : "transpose",
      "name" : "transpose_209"
    },
    {
      "name" : "StatefulPartitionedCall\/BoxPredictor\/ConvolutionalClassHead_4\/Reshape",
      "weights" : {

      },
      "dst_w" : 91,
      "version" : 1,
      "dst_n" : 1,
      "dst_nd_rank" : 3,
      "type" : "reshape",
      "dst_h" : -1,
      "mode" : 0,
      "dynamic_shape" : false,
      "bottom" : "transpose_209",
      "debug_info" : "StatefulPartitionedCall\/BoxPredictor\/ConvolutionalClassHead_4\/Reshape",
      "dst_seq" : 1,
      "dst_k" : 1,
      "top" : "StatefulPartitionedCall\/BoxPredictor\/ConvolutionalClassHead_4\/Reshape"
    },
    {
      "pad_r" : 0,
      "fused_relu" : 1,
      "fused_tanh" : 0,
      "debug_info" : "StatefulPartitionedCall\/ssd_mobile_net_v2keras_feature_extractor\/FeatureMaps\/layer_19_2_Conv2d_5_3x3_s2_128_batchnorm\/FusedBatchNormV3_nchw",
      "pad_fill_mode" : 0,
      "pad_b" : 0,
      "pad_l" : 0,
      "top" : "StatefulPartitionedCall\/ssd_mobile_net_v2keras_feature_extractor\/FeatureMaps\/layer_19_2_Conv2d_5_3x3_s2_128\/Relu6__relu6_relu__",
      "blob_weights" : 281,
      "K" : 64,
      "blob_biases" : 279,
      "stride_x" : 2,
      "name" : "StatefulPartitionedCall\/ssd_mobile_net_v2keras_feature_extractor\/FeatureMaps\/layer_19_2_Conv2d_5_3x3_s2_128_batchnorm\/FusedBatchNormV3_nchw",
      "has_batch_norm" : 0,
      "type" : "convolution",
      "n_groups" : 1,
      "pad_t" : 0,
      "stride_y" : 2,
      "has_biases" : 1,
      "C" : 128,
      "bottom" : "StatefulPartitionedCall\/ssd_mobile_net_v2keras_feature_extractor\/FeatureMaps\/layer_19_1_Conv2d_5_1x1_64\/Relu6",
      "weights" : {

      },
      "Nx" : 3,
      "pad_mode" : 1,
      "pad_value" : 0,
      "Ny" : 3,
      "n_parallel" : 1
    },
    {
      "alpha" : -1,
      "bottom" : "StatefulPartitionedCall\/ssd_mobile_net_v2keras_feature_extractor\/FeatureMaps\/layer_19_2_Conv2d_5_3x3_s2_128\/Relu6__relu6_relu__",
      "weights" : {

      },
      "mode" : 6,
      "debug_info" : "StatefulPartitionedCall\/ssd_mobile_net_v2keras_feature_extractor\/FeatureMaps\/layer_19_2_Conv2d_5_3x3_s2_128\/Relu6__relu6_neg__",
      "top" : "StatefulPartitionedCall\/ssd_mobile_net_v2keras_feature_extractor\/FeatureMaps\/layer_19_2_Conv2d_5_3x3_s2_128\/Relu6__relu6_neg__",
      "type" : "activation",
      "name" : "StatefulPartitionedCall\/ssd_mobile_net_v2keras_feature_extractor\/FeatureMaps\/layer_19_2_Conv2d_5_3x3_s2_128\/Relu6__relu6_neg__",
      "beta" : 0
    },
    {
      "bottom" : "StatefulPartitionedCall\/ssd_mobile_net_v2keras_feature_extractor\/FeatureMaps\/layer_19_2_Conv2d_5_3x3_s2_128\/Relu6__relu6_neg__",
      "alpha" : -6,
      "operation" : 25,
      "weights" : {

      },
      "fused_relu" : 0,
      "debug_info" : "StatefulPartitionedCall\/ssd_mobile_net_v2keras_feature_extractor\/FeatureMaps\/layer_19_2_Conv2d_5_3x3_s2_128\/Relu6__relu6_threshold6__",
      "top" : "StatefulPartitionedCall\/ssd_mobile_net_v2keras_feature_extractor\/FeatureMaps\/layer_19_2_Conv2d_5_3x3_s2_128\/Relu6__relu6_threshold6__",
      "type" : "elementwise",
      "name" : "StatefulPartitionedCall\/ssd_mobile_net_v2keras_feature_extractor\/FeatureMaps\/layer_19_2_Conv2d_5_3x3_s2_128\/Relu6__relu6_threshold6__",
      "beta" : 0
    },
    {
      "alpha" : -1,
      "bottom" : "StatefulPartitionedCall\/ssd_mobile_net_v2keras_feature_extractor\/FeatureMaps\/layer_19_2_Conv2d_5_3x3_s2_128\/Relu6__relu6_threshold6__",
      "weights" : {

      },
      "mode" : 6,
      "debug_info" : "StatefulPartitionedCall\/ssd_mobile_net_v2keras_feature_extractor\/FeatureMaps\/layer_19_2_Conv2d_5_3x3_s2_128\/Relu6",
      "top" : "StatefulPartitionedCall\/ssd_mobile_net_v2keras_feature_extractor\/FeatureMaps\/layer_19_2_Conv2d_5_3x3_s2_128\/Relu6",
      "type" : "activation",
      "name" : "StatefulPartitionedCall\/ssd_mobile_net_v2keras_feature_extractor\/FeatureMaps\/layer_19_2_Conv2d_5_3x3_s2_128\/Relu6",
      "beta" : 0
    },
    {
      "pad_r" : 0,
      "fused_relu" : 0,
      "fused_tanh" : 0,
      "debug_info" : "conv_10",
      "pad_fill_mode" : 0,
      "pad_b" : 0,
      "pad_l" : 0,
      "top" : "conv_10",
      "blob_weights" : 285,
      "K" : 128,
      "blob_biases" : 283,
      "name" : "conv_10",
      "has_batch_norm" : 0,
      "type" : "convolution",
      "n_groups" : 1,
      "pad_t" : 0,
      "has_biases" : 1,
      "C" : 24,
      "bottom" : "StatefulPartitionedCall\/ssd_mobile_net_v2keras_feature_extractor\/FeatureMaps\/layer_19_2_Conv2d_5_3x3_s2_128\/Relu6",
      "weights" : {

      },
      "Nx" : 1,
      "pad_mode" : 1,
      "pad_value" : 0,
      "Ny" : 1,
      "n_parallel" : 1
    },
    {
      "pad_r" : 0,
      "fused_relu" : 0,
      "fused_tanh" : 0,
      "debug_info" : "conv_11",
      "pad_fill_mode" : 0,
      "pad_b" : 0,
      "pad_l" : 0,
      "top" : "conv_11",
      "blob_weights" : 289,
      "K" : 128,
      "blob_biases" : 287,
      "name" : "conv_11",
      "has_batch_norm" : 0,
      "type" : "convolution",
      "n_groups" : 1,
      "pad_t" : 0,
      "has_biases" : 1,
      "C" : 546,
      "bottom" : "StatefulPartitionedCall\/ssd_mobile_net_v2keras_feature_extractor\/FeatureMaps\/layer_19_2_Conv2d_5_3x3_s2_128\/Relu6",
      "weights" : {

      },
      "Nx" : 1,
      "pad_mode" : 1,
      "pad_value" : 0,
      "Ny" : 1,
      "n_parallel" : 1
    },
    {
      "axis_h" : 0,
      "axis_w" : 2,
      "bottom" : "conv_10",
      "axis_k" : 1,
      "axis_n" : 3,
      "axis_seq" : 4,
      "weights" : {

      },
      "debug_info" : "transpose_208",
      "top" : "transpose_208",
      "type" : "transpose",
      "name" : "transpose_208"
    },
    {
      "name" : "StatefulPartitionedCall\/BoxPredictor\/ConvolutionalBoxHead_5\/Reshape",
      "rank_preserving_mode" : true,
      "dst_w" : 4,
      "version" : 1,
      "dst_n" : 1,
      "dst_nd_rank" : 4,
      "weights" : {

      },
      "type" : "reshape",
      "dst_h" : 1,
      "mode" : 0,
      "bottom" : "transpose_208",
      "debug_info" : "StatefulPartitionedCall\/BoxPredictor\/ConvolutionalBoxHead_5\/Reshape",
      "dst_seq" : 0,
      "dst_k" : -1,
      "top" : "StatefulPartitionedCall\/BoxPredictor\/ConvolutionalBoxHead_5\/Reshape"
    },
    {
      "axis_h" : 0,
      "axis_w" : 2,
      "bottom" : "conv_11",
      "axis_k" : 1,
      "axis_n" : 3,
      "axis_seq" : 4,
      "weights" : {

      },
      "debug_info" : "transpose_207",
      "top" : "transpose_207",
      "type" : "transpose",
      "name" : "transpose_207"
    },
    {
      "name" : "StatefulPartitionedCall\/BoxPredictor\/ConvolutionalClassHead_5\/Reshape",
      "weights" : {

      },
      "dst_w" : 91,
      "version" : 1,
      "dst_n" : 1,
      "dst_nd_rank" : 3,
      "type" : "reshape",
      "dst_h" : -1,
      "mode" : 0,
      "dynamic_shape" : false,
      "bottom" : "transpose_207",
      "debug_info" : "StatefulPartitionedCall\/BoxPredictor\/ConvolutionalClassHead_5\/Reshape",
      "dst_seq" : 1,
      "dst_k" : 1,
      "top" : "StatefulPartitionedCall\/BoxPredictor\/ConvolutionalClassHead_5\/Reshape"
    },
    {
      "weights" : {

      },
      "debug_info" : "StatefulPartitionedCall\/concat",
      "top" : "StatefulPartitionedCall\/concat",
      "type" : "concat",
      "name" : "StatefulPartitionedCall\/concat",
      "bottom" : "StatefulPartitionedCall\/BoxPredictor\/ConvolutionalBoxHead_0\/Reshape,StatefulPartitionedCall\/BoxPredictor\/ConvolutionalBoxHead_1\/Reshape,StatefulPartitionedCall\/BoxPredictor\/ConvolutionalBoxHead_2\/Reshape,StatefulPartitionedCall\/BoxPredictor\/ConvolutionalBoxHead_3\/Reshape,StatefulPartitionedCall\/BoxPredictor\/ConvolutionalBoxHead_4\/Reshape,StatefulPartitionedCall\/BoxPredictor\/ConvolutionalBoxHead_5\/Reshape"
    },
    {
      "bottom" : "StatefulPartitionedCall\/BoxPredictor\/ConvolutionalClassHead_0\/Reshape,StatefulPartitionedCall\/BoxPredictor\/ConvolutionalClassHead_1\/Reshape,StatefulPartitionedCall\/BoxPredictor\/ConvolutionalClassHead_2\/Reshape,StatefulPartitionedCall\/BoxPredictor\/ConvolutionalClassHead_3\/Reshape,StatefulPartitionedCall\/BoxPredictor\/ConvolutionalClassHead_4\/Reshape,StatefulPartitionedCall\/BoxPredictor\/ConvolutionalClassHead_5\/Reshape",
      "weights" : {

      },
      "nd_mode" : true,
      "axis" : 1,
      "debug_info" : "StatefulPartitionedCall\/concat_1",
      "top" : "StatefulPartitionedCall\/concat_1",
      "type" : "general_concat",
      "name" : "StatefulPartitionedCall\/concat_1"
    },
    {
      "size_of_axes" : 1,
      "bottom" : "StatefulPartitionedCall\/concat",
      "axes_0" : 2,
      "weights" : {

      },
      "nd_axis" : 0,
      "debug_info" : "StatefulPartitionedCall\/Squeeze",
      "version" : 1,
      "top" : "StatefulPartitionedCall\/Squeeze",
      "type" : "squeeze",
      "name" : "StatefulPartitionedCall\/Squeeze"
    },
    {
      "bottom" : "StatefulPartitionedCall\/concat_1",
      "weights" : {

      },
      "mode" : 3,
      "debug_info" : "StatefulPartitionedCall\/Postprocessor\/convert_scores",
      "top" : "raw_detection_scores",
      "type" : "activation",
      "name" : "StatefulPartitionedCall\/Postprocessor\/convert_scores",
      "attributes" : {
        "is_output" : 1
      }
    },
    {
      "name" : "StatefulPartitionedCall\/Postprocessor\/Reshape_1",
      "weights" : {

      },
      "dst_w" : 4,
      "version" : 1,
      "dst_n" : 1,
      "dst_nd_rank" : 2,
      "type" : "reshape",
      "dst_h" : -1,
      "mode" : 0,
      "dynamic_shape" : false,
      "bottom" : "StatefulPartitionedCall\/Squeeze",
      "debug_info" : "StatefulPartitionedCall\/Postprocessor\/Reshape_1",
      "dst_seq" : 1,
      "dst_k" : 1,
      "top" : "StatefulPartitionedCall\/Postprocessor\/Reshape_1"
    },
    {
      "axis_h" : 0,
      "axis_w" : 1,
      "bottom" : "StatefulPartitionedCall\/Postprocessor\/Reshape_1",
      "axis_k" : 2,
      "axis_n" : 3,
      "axis_seq" : 4,
      "weights" : {

      },
      "debug_info" : "transpose_206",
      "top" : "transpose_206",
      "type" : "transpose",
      "name" : "transpose_206"
    },
    {
      "begin_104" : 0,
      "begin_63" : 0,
      "begin_59" : 0,
      "begin_64" : 0,
      "begin_105" : 0,
      "begin_65" : 0,
      "begin_0" : 0,
      "begin_70" : 0,
      "begin_66" : 0,
      "begin_106" : 0,
      "begin_110" : 0,
      "begin_2" : 0,
      "begin_71" : 0,
      "begin_67" : 0,
      "begin_68" : 0,
      "begin_107" : 0,
      "begin_111" : 0,
      "begin_4" : 0,
      "begin_72" : 0,
      "begin_73" : 0,
      "begin_69" : 0,
      "begin_6" : 0,
      "begin_74" : 0,
      "begin_108" : 0,
      "type" : "split_nd",
      "begin_8" : 0,
      "begin_112" : 0,
      "begin_75" : 0,
      "begin_10" : 0,
      "begin_80" : 0,
      "begin_76" : 0,
      "begin_109" : 0,
      "begin_113" : 0,
      "begin_11" : 0,
      "begin_81" : 0,
      "begin_77" : 0,
      "begin_114" : 0,
      "begin_12" : 0,
      "begin_78" : 0,
      "begin_82" : 0,
      "begin_13" : 0,
      "begin_83" : 0,
      "begin_79" : 0,
      "begin_115" : 0,
      "begin_14" : 0,
      "begin_84" : 0,
      "begin_15" : 0,
      "begin_85" : 0,
      "num_splits" : 4,
      "begin_116" : 0,
      "begin_120" : 0,
      "begin_20" : 0,
      "begin_86" : 0,
      "begin_16" : 0,
      "begin_90" : 0,
      "begin_21" : 0,
      "begin_91" : 0,
      "begin_87" : 0,
      "begin_17" : 0,
      "begin_117" : 0,
      "begin_121" : 0,
      "begin_18" : 0,
      "begin_92" : 0,
      "begin_88" : 0,
      "begin_22" : 0,
      "begin_23" : 0,
      "begin_89" : 0,
      "begin_19" : 0,
      "begin_93" : 0,
      "begin_118" : 0,
      "begin_122" : 0,
      "begin_24" : 0,
      "begin_94" : 0,
      "begin_25" : 0,
      "begin_95" : 0,
      "begin_119" : 0,
      "begin_123" : 0,
      "begin_30" : 0,
      "begin_26" : 0,
      "begin_96" : 0,
      "begin_124" : 0,
      "begin_31" : 0,
      "begin_97" : 0,
      "begin_27" : 0,
      "begin_28" : 0,
      "begin_98" : 0,
      "begin_32" : 0,
      "begin_125" : 0,
      "begin_33" : 0,
      "begin_29" : 0,
      "begin_99" : 0,
      "begin_1" : 0,
      "weights" : {

      },
      "begin_34" : 0,
      "bottom" : "transpose_206",
      "begin_3" : 0,
      "begin_126" : 0,
      "begin_35" : 0,
      "begin_5" : 0,
      "begin_36" : 0,
      "begin_40" : 0,
      "begin_127" : 0,
      "name" : "StatefulPartitionedCall\/Postprocessor\/Decode\/unstack_unsqueezed",
      "begin_41" : 0,
      "begin_37" : 0,
      "begin_7" : 0,
      "begin_42" : 0,
      "begin_38" : 0,
      "begin_9" : 0,
      "begin_39" : 0,
      "begin_43" : 0,
      "begin_44" : 0,
      "begin_45" : 0,
      "begin_50" : 0,
      "begin_46" : 0,
      "begin_51" : 0,
      "begin_47" : 0,
      "begin_100" : 0,
      "begin_52" : 0,
      "debug_info" : "StatefulPartitionedCall\/Postprocessor\/Decode\/unstack_unsqueezed",
      "begin_48" : 0,
      "top" : "StatefulPartitionedCall\/Postprocessor\/Decode\/unstack_unsqueezed_0,StatefulPartitionedCall\/Postprocessor\/Decode\/unstack_unsqueezed_1,StatefulPartitionedCall\/Postprocessor\/Decode\/unstack_unsqueezed_2,StatefulPartitionedCall\/Postprocessor\/Decode\/unstack_unsqueezed_3",
      "begin_101" : 0,
      "begin_53" : 0,
      "begin_49" : 0,
      "begin_54" : 0,
      "begin_55" : 0,
      "begin_102" : 0,
      "begin_60" : 0,
      "begin_56" : 0,
      "begin_103" : 0,
      "begin_57" : 0,
      "begin_61" : 0,
      "begin_62" : 0,
      "begin_58" : 0
    },
    {
      "size_of_axes" : 1,
      "bottom" : "StatefulPartitionedCall\/Postprocessor\/Decode\/unstack_unsqueezed_0",
      "axes_0" : 0,
      "weights" : {

      },
      "nd_axis" : 0,
      "debug_info" : "StatefulPartitionedCall\/Postprocessor\/Decode\/unstack:0",
      "version" : 1,
      "top" : "StatefulPartitionedCall\/Postprocessor\/Decode\/unstack:0",
      "type" : "squeeze",
      "name" : "StatefulPartitionedCall\/Postprocessor\/Decode\/unstack:0"
    },
    {
      "size_of_axes" : 1,
      "bottom" : "StatefulPartitionedCall\/Postprocessor\/Decode\/unstack_unsqueezed_1",
      "axes_0" : 0,
      "weights" : {

      },
      "nd_axis" : 0,
      "debug_info" : "StatefulPartitionedCall\/Postprocessor\/Decode\/unstack:1",
      "version" : 1,
      "top" : "StatefulPartitionedCall\/Postprocessor\/Decode\/unstack:1",
      "type" : "squeeze",
      "name" : "StatefulPartitionedCall\/Postprocessor\/Decode\/unstack:1"
    },
    {
      "size_of_axes" : 1,
      "bottom" : "StatefulPartitionedCall\/Postprocessor\/Decode\/unstack_unsqueezed_2",
      "axes_0" : 0,
      "weights" : {

      },
      "nd_axis" : 0,
      "debug_info" : "StatefulPartitionedCall\/Postprocessor\/Decode\/unstack:2",
      "version" : 1,
      "top" : "StatefulPartitionedCall\/Postprocessor\/Decode\/unstack:2",
      "type" : "squeeze",
      "name" : "StatefulPartitionedCall\/Postprocessor\/Decode\/unstack:2"
    },
    {
      "size_of_axes" : 1,
      "bottom" : "StatefulPartitionedCall\/Postprocessor\/Decode\/unstack_unsqueezed_3",
      "axes_0" : 0,
      "weights" : {

      },
      "nd_axis" : 0,
      "debug_info" : "StatefulPartitionedCall\/Postprocessor\/Decode\/unstack:3",
      "version" : 1,
      "top" : "StatefulPartitionedCall\/Postprocessor\/Decode\/unstack:3",
      "type" : "squeeze",
      "name" : "StatefulPartitionedCall\/Postprocessor\/Decode\/unstack:3"
    },
    {
      "top" : "StatefulPartitionedCall\/Postprocessor\/Decode\/truediv",
      "w" : 1917,
      "h" : 1,
      "name" : "StatefulPartitionedCall\/Postprocessor\/Decode\/truediv",
      "nd_rank" : 1,
      "type" : "load_constant",
      "k" : 1,
      "bottom" : "",
      "debug_info" : "StatefulPartitionedCall\/Postprocessor\/Decode\/truediv",
      "n" : 1,
      "weights" : {

      },
      "constant_blob" : 291
    },
    {
      "bottom" : "StatefulPartitionedCall\/Postprocessor\/Decode\/unstack:0,StatefulPartitionedCall\/Postprocessor\/Decode\/truediv",
      "alpha" : 1,
      "operation" : 1,
      "weights" : {

      },
      "fused_relu" : 0,
      "debug_info" : "StatefulPartitionedCall\/Postprocessor\/Decode\/mul_2",
      "top" : "StatefulPartitionedCall\/Postprocessor\/Decode\/mul_2",
      "type" : "elementwise",
      "name" : "StatefulPartitionedCall\/Postprocessor\/Decode\/mul_2",
      "beta" : 0
    },
    {
      "bottom" : "StatefulPartitionedCall\/Postprocessor\/Decode\/unstack:2",
      "alpha" : 0.20000000298023224,
      "operation" : 1,
      "weights" : {

      },
      "fused_relu" : 0,
      "debug_info" : "StatefulPartitionedCall\/Postprocessor\/Decode\/truediv_2",
      "top" : "StatefulPartitionedCall\/Postprocessor\/Decode\/truediv_2",
      "type" : "elementwise",
      "name" : "StatefulPartitionedCall\/Postprocessor\/Decode\/truediv_2",
      "beta" : 0
    },
    {
      "top" : "StatefulPartitionedCall\/Postprocessor\/Decode\/truediv_1",
      "w" : 1917,
      "h" : 1,
      "name" : "StatefulPartitionedCall\/Postprocessor\/Decode\/truediv_1",
      "nd_rank" : 1,
      "type" : "load_constant",
      "k" : 1,
      "bottom" : "",
      "debug_info" : "StatefulPartitionedCall\/Postprocessor\/Decode\/truediv_1",
      "n" : 1,
      "weights" : {

      },
      "constant_blob" : 293
    },
    {
      "bottom" : "StatefulPartitionedCall\/Postprocessor\/Decode\/unstack:1,StatefulPartitionedCall\/Postprocessor\/Decode\/truediv_1",
      "alpha" : 1,
      "operation" : 1,
      "weights" : {

      },
      "fused_relu" : 0,
      "debug_info" : "StatefulPartitionedCall\/Postprocessor\/Decode\/mul_3",
      "top" : "StatefulPartitionedCall\/Postprocessor\/Decode\/mul_3",
      "type" : "elementwise",
      "name" : "StatefulPartitionedCall\/Postprocessor\/Decode\/mul_3",
      "beta" : 0
    },
    {
      "bottom" : "StatefulPartitionedCall\/Postprocessor\/Decode\/unstack:3",
      "alpha" : 0.20000000298023224,
      "operation" : 1,
      "weights" : {

      },
      "fused_relu" : 0,
      "debug_info" : "StatefulPartitionedCall\/Postprocessor\/Decode\/truediv_3",
      "top" : "StatefulPartitionedCall\/Postprocessor\/Decode\/truediv_3",
      "type" : "elementwise",
      "name" : "StatefulPartitionedCall\/Postprocessor\/Decode\/truediv_3",
      "beta" : 0
    },
    {
      "top" : "StatefulPartitionedCall\/Postprocessor\/Decode\/get_center_coordinates_and_sizes\/add",
      "w" : 1917,
      "h" : 1,
      "name" : "StatefulPartitionedCall\/Postprocessor\/Decode\/get_center_coordinates_and_sizes\/add",
      "nd_rank" : 1,
      "type" : "load_constant",
      "k" : 1,
      "bottom" : "",
      "debug_info" : "StatefulPartitionedCall\/Postprocessor\/Decode\/get_center_coordinates_and_sizes\/add",
      "n" : 1,
      "weights" : {

      },
      "constant_blob" : 295
    },
    {
      "bottom" : "StatefulPartitionedCall\/Postprocessor\/Decode\/mul_2,StatefulPartitionedCall\/Postprocessor\/Decode\/get_center_coordinates_and_sizes\/add",
      "alpha" : 1,
      "operation" : 0,
      "weights" : {

      },
      "fused_relu" : 0,
      "debug_info" : "StatefulPartitionedCall\/Postprocessor\/Decode\/add",
      "top" : "StatefulPartitionedCall\/Postprocessor\/Decode\/add",
      "type" : "elementwise",
      "name" : "StatefulPartitionedCall\/Postprocessor\/Decode\/add",
      "beta" : 0
    },
    {
      "bottom" : "StatefulPartitionedCall\/Postprocessor\/Decode\/truediv_2",
      "alpha" : 1,
      "operation" : 27,
      "weights" : {

      },
      "fused_relu" : 0,
      "debug_info" : "StatefulPartitionedCall\/Postprocessor\/Decode\/Exp_1",
      "top" : "StatefulPartitionedCall\/Postprocessor\/Decode\/Exp_1",
      "type" : "elementwise",
      "name" : "StatefulPartitionedCall\/Postprocessor\/Decode\/Exp_1",
      "beta" : 0
    },
    {
      "top" : "StatefulPartitionedCall\/Postprocessor\/Decode\/get_center_coordinates_and_sizes\/add_1",
      "w" : 1917,
      "h" : 1,
      "name" : "StatefulPartitionedCall\/Postprocessor\/Decode\/get_center_coordinates_and_sizes\/add_1",
      "nd_rank" : 1,
      "type" : "load_constant",
      "k" : 1,
      "bottom" : "",
      "debug_info" : "StatefulPartitionedCall\/Postprocessor\/Decode\/get_center_coordinates_and_sizes\/add_1",
      "n" : 1,
      "weights" : {

      },
      "constant_blob" : 297
    },
    {
      "bottom" : "StatefulPartitionedCall\/Postprocessor\/Decode\/mul_3,StatefulPartitionedCall\/Postprocessor\/Decode\/get_center_coordinates_and_sizes\/add_1",
      "alpha" : 1,
      "operation" : 0,
      "weights" : {

      },
      "fused_relu" : 0,
      "debug_info" : "StatefulPartitionedCall\/Postprocessor\/Decode\/add_1",
      "top" : "StatefulPartitionedCall\/Postprocessor\/Decode\/add_1",
      "type" : "elementwise",
      "name" : "StatefulPartitionedCall\/Postprocessor\/Decode\/add_1",
      "beta" : 0
    },
    {
      "bottom" : "StatefulPartitionedCall\/Postprocessor\/Decode\/truediv_3",
      "alpha" : 1,
      "operation" : 27,
      "weights" : {

      },
      "fused_relu" : 0,
      "debug_info" : "StatefulPartitionedCall\/Postprocessor\/Decode\/Exp",
      "top" : "StatefulPartitionedCall\/Postprocessor\/Decode\/Exp",
      "type" : "elementwise",
      "name" : "StatefulPartitionedCall\/Postprocessor\/Decode\/Exp",
      "beta" : 0
    },
    {
      "top" : "StatefulPartitionedCall\/Postprocessor\/Decode\/get_center_coordinates_and_sizes\/sub_1",
      "w" : 1917,
      "h" : 1,
      "name" : "StatefulPartitionedCall\/Postprocessor\/Decode\/get_center_coordinates_and_sizes\/sub_1",
      "nd_rank" : 1,
      "type" : "load_constant",
      "k" : 1,
      "bottom" : "",
      "debug_info" : "StatefulPartitionedCall\/Postprocessor\/Decode\/get_center_coordinates_and_sizes\/sub_1",
      "n" : 1,
      "weights" : {

      },
      "constant_blob" : 299
    },
    {
      "bottom" : "StatefulPartitionedCall\/Postprocessor\/Decode\/Exp_1,StatefulPartitionedCall\/Postprocessor\/Decode\/get_center_coordinates_and_sizes\/sub_1",
      "alpha" : 1,
      "operation" : 1,
      "weights" : {

      },
      "fused_relu" : 0,
      "debug_info" : "StatefulPartitionedCall\/Postprocessor\/Decode\/mul_1",
      "top" : "StatefulPartitionedCall\/Postprocessor\/Decode\/mul_1",
      "type" : "elementwise",
      "name" : "StatefulPartitionedCall\/Postprocessor\/Decode\/mul_1",
      "beta" : 0
    },
    {
      "top" : "StatefulPartitionedCall\/Postprocessor\/Decode\/get_center_coordinates_and_sizes\/sub",
      "w" : 1917,
      "h" : 1,
      "name" : "StatefulPartitionedCall\/Postprocessor\/Decode\/get_center_coordinates_and_sizes\/sub",
      "nd_rank" : 1,
      "type" : "load_constant",
      "k" : 1,
      "bottom" : "",
      "debug_info" : "StatefulPartitionedCall\/Postprocessor\/Decode\/get_center_coordinates_and_sizes\/sub",
      "n" : 1,
      "weights" : {

      },
      "constant_blob" : 301
    },
    {
      "bottom" : "StatefulPartitionedCall\/Postprocessor\/Decode\/Exp,StatefulPartitionedCall\/Postprocessor\/Decode\/get_center_coordinates_and_sizes\/sub",
      "alpha" : 1,
      "operation" : 1,
      "weights" : {

      },
      "fused_relu" : 0,
      "debug_info" : "StatefulPartitionedCall\/Postprocessor\/Decode\/mul",
      "top" : "StatefulPartitionedCall\/Postprocessor\/Decode\/mul",
      "type" : "elementwise",
      "name" : "StatefulPartitionedCall\/Postprocessor\/Decode\/mul",
      "beta" : 0
    },
    {
      "bottom" : "StatefulPartitionedCall\/Postprocessor\/Decode\/mul_1",
      "alpha" : 0.5,
      "operation" : 1,
      "weights" : {

      },
      "fused_relu" : 0,
      "debug_info" : "StatefulPartitionedCall\/Postprocessor\/Decode\/truediv_4",
      "top" : "StatefulPartitionedCall\/Postprocessor\/Decode\/truediv_4",
      "type" : "elementwise",
      "name" : "StatefulPartitionedCall\/Postprocessor\/Decode\/truediv_4",
      "beta" : 0
    },
    {
      "bottom" : "StatefulPartitionedCall\/Postprocessor\/Decode\/mul",
      "alpha" : 0.5,
      "operation" : 1,
      "weights" : {

      },
      "fused_relu" : 0,
      "debug_info" : "StatefulPartitionedCall\/Postprocessor\/Decode\/truediv_5",
      "top" : "StatefulPartitionedCall\/Postprocessor\/Decode\/truediv_5",
      "type" : "elementwise",
      "name" : "StatefulPartitionedCall\/Postprocessor\/Decode\/truediv_5",
      "beta" : 0
    },
    {
      "alpha" : -1,
      "bottom" : "StatefulPartitionedCall\/Postprocessor\/Decode\/truediv_4",
      "weights" : {

      },
      "mode" : 6,
      "debug_info" : "_neg_y_StatefulPartitionedCall\/Postprocessor\/Decode\/sub",
      "top" : "_neg_y_StatefulPartitionedCall\/Postprocessor\/Decode\/sub",
      "type" : "activation",
      "name" : "_neg_y_StatefulPartitionedCall\/Postprocessor\/Decode\/sub",
      "beta" : 0
    },
    {
      "bottom" : "_neg_y_StatefulPartitionedCall\/Postprocessor\/Decode\/sub,StatefulPartitionedCall\/Postprocessor\/Decode\/add",
      "alpha" : 1,
      "operation" : 0,
      "weights" : {

      },
      "fused_relu" : 0,
      "debug_info" : "StatefulPartitionedCall\/Postprocessor\/Decode\/sub",
      "top" : "StatefulPartitionedCall\/Postprocessor\/Decode\/sub",
      "type" : "elementwise",
      "name" : "StatefulPartitionedCall\/Postprocessor\/Decode\/sub",
      "beta" : 0
    },
    {
      "bottom" : "StatefulPartitionedCall\/Postprocessor\/Decode\/add,StatefulPartitionedCall\/Postprocessor\/Decode\/truediv_4",
      "alpha" : 1,
      "operation" : 0,
      "weights" : {

      },
      "fused_relu" : 0,
      "debug_info" : "StatefulPartitionedCall\/Postprocessor\/Decode\/add_2",
      "top" : "StatefulPartitionedCall\/Postprocessor\/Decode\/add_2",
      "type" : "elementwise",
      "name" : "StatefulPartitionedCall\/Postprocessor\/Decode\/add_2",
      "beta" : 0
    },
    {
      "alpha" : -1,
      "bottom" : "StatefulPartitionedCall\/Postprocessor\/Decode\/truediv_5",
      "weights" : {

      },
      "mode" : 6,
      "debug_info" : "_neg_y_StatefulPartitionedCall\/Postprocessor\/Decode\/sub_1",
      "top" : "_neg_y_StatefulPartitionedCall\/Postprocessor\/Decode\/sub_1",
      "type" : "activation",
      "name" : "_neg_y_StatefulPartitionedCall\/Postprocessor\/Decode\/sub_1",
      "beta" : 0
    },
    {
      "bottom" : "_neg_y_StatefulPartitionedCall\/Postprocessor\/Decode\/sub_1,StatefulPartitionedCall\/Postprocessor\/Decode\/add_1",
      "alpha" : 1,
      "operation" : 0,
      "weights" : {

      },
      "fused_relu" : 0,
      "debug_info" : "StatefulPartitionedCall\/Postprocessor\/Decode\/sub_1",
      "top" : "StatefulPartitionedCall\/Postprocessor\/Decode\/sub_1",
      "type" : "elementwise",
      "name" : "StatefulPartitionedCall\/Postprocessor\/Decode\/sub_1",
      "beta" : 0
    },
    {
      "bottom" : "StatefulPartitionedCall\/Postprocessor\/Decode\/add_1,StatefulPartitionedCall\/Postprocessor\/Decode\/truediv_5",
      "alpha" : 1,
      "operation" : 0,
      "weights" : {

      },
      "fused_relu" : 0,
      "debug_info" : "StatefulPartitionedCall\/Postprocessor\/Decode\/add_3",
      "top" : "StatefulPartitionedCall\/Postprocessor\/Decode\/add_3",
      "type" : "elementwise",
      "name" : "StatefulPartitionedCall\/Postprocessor\/Decode\/add_3",
      "beta" : 0
    },
    {
      "bottom" : "StatefulPartitionedCall\/Postprocessor\/Decode\/sub,StatefulPartitionedCall\/Postprocessor\/Decode\/sub_1,StatefulPartitionedCall\/Postprocessor\/Decode\/add_2,StatefulPartitionedCall\/Postprocessor\/Decode\/add_3",
      "weights" : {

      },
      "nd_axis" : 0,
      "debug_info" : "StatefulPartitionedCall\/Postprocessor\/Decode\/stack",
      "top" : "StatefulPartitionedCall\/Postprocessor\/Decode\/stack",
      "type" : "stack_nd",
      "name" : "StatefulPartitionedCall\/Postprocessor\/Decode\/stack"
    },
    {
      "axis_h" : 0,
      "axis_w" : 1,
      "bottom" : "StatefulPartitionedCall\/Postprocessor\/Decode\/stack",
      "axis_k" : 2,
      "axis_n" : 3,
      "axis_seq" : 4,
      "weights" : {

      },
      "debug_info" : "transpose_205",
      "top" : "transpose_205",
      "type" : "transpose",
      "name" : "transpose_205"
    },
    {
      "name" : "StatefulPartitionedCall\/Postprocessor\/Reshape_2",
      "weights" : {

      },
      "dst_w" : 4,
      "version" : 1,
      "dst_n" : 1,
      "dst_nd_rank" : 3,
      "type" : "reshape",
      "dst_h" : 1917,
      "mode" : 0,
      "dynamic_shape" : false,
      "bottom" : "transpose_205",
      "debug_info" : "StatefulPartitionedCall\/Postprocessor\/Reshape_2",
      "dst_seq" : 1,
      "dst_k" : 1,
      "top" : "StatefulPartitionedCall\/Postprocessor\/Reshape_2"
    },
    {
      "size_of_axes" : 1,
      "bottom" : "StatefulPartitionedCall\/Postprocessor\/Reshape_2",
      "axes_0" : 2,
      "weights" : {

      },
      "nd_axis" : 0,
      "debug_info" : "StatefulPartitionedCall\/Postprocessor\/ExpandDims_1",
      "top" : "StatefulPartitionedCall\/Postprocessor\/ExpandDims_1",
      "type" : "expand_dims",
      "name" : "StatefulPartitionedCall\/Postprocessor\/ExpandDims_1"
    },
    {
      "bottom" : "StatefulPartitionedCall\/Postprocessor\/ExpandDims_1",
      "size_of_axes" : 1,
      "axes_0" : 2,
      "weights" : {

      },
      "nd_axis" : 0,
      "debug_info" : "StatefulPartitionedCall\/Postprocessor\/Squeeze",
      "version" : 1,
      "top" : "raw_detection_boxes",
      "type" : "squeeze",
      "name" : "StatefulPartitionedCall\/Postprocessor\/Squeeze",
      "attributes" : {
        "is_output" : 1
      }
    }
  ],
  "transform_params" : {
    "input_tensor" : {
      "bias_a" : 0,
      "bias_g" : 0,
      "bias_r" : 0,
      "bias_b" : 0,
      "center_mean" : 0,
      "is_network_bgr" : 0,
      "scale" : 1
    }
  },
  "storage" : "model.espresso.weights",
  "metadata_in_weights" : [

  ],
  "properties" : {

  },
  "analyses" : {

  },
  "format_version" : 200
}